…
I0129 22:47:03.235275  7239 net.cpp:294] The NetState phase (0) differed from the phase (1) specified by a rule in layer Accuracy1
I0129 22:47:03.235729  7239 net.cpp:51] Initializing net from parameters: 
name: "resnet_cifar10"
state {
  phase: TRAIN
  level: 0
  stage: ""
}
layer {
  name: "Data1"
  type: "Data"
  top: "Data1"
  top: "Data2"
  include {
    phase: TRAIN
  }
  transform_param {
    mirror: true
    crop_size: 32
    mean_file: "data/cifar10/pad4_mean.binaryproto"
  }
  data_param {
    source: "data/cifar10/cifar10_pad4_train_lmdb"
    batch_size: 32
    backend: LMDB
  }
}
layer {
  name: "Convolution1"
  type: "Convolution"
  bottom: "Data1"
  top: "Convolution1"
  param {
    lr_mult: 1
    decay_mult: 1
  }
  param {
    lr_mult: 2
    decay_mult: 0
  }
  convolution_param {
    num_output: 160
    pad: 1
    kernel_size: 3
    stride: 1
    weight_filler {
      type: "msra"
    }
    bias_filler {
      type: "constant"
      value: 0
    }
  }
}
layer {
  name: "BatchNorm1"
  type: "BatchNorm"
  bottom: "Convolution1"
  top: "Convolution1"
  param {
    lr_mult: 0
    decay_mult: 0
  }
  param {
    lr_mult: 0
    decay_mult: 0
  }
  param {
    lr_mult: 0
    decay_mult: 0
  }
}
layer {
  name: "Scale1"
  type: "Scale"
  bottom: "Convolution1"
  top: "Convolution1"
  scale_param {
    bias_term: true
  }
}
layer {
  name: "ReLU1"
  type: "ReLU"
  bottom: "Convolution1"
  top: "Convolution1"
}
layer {
  name: "Convolution2"
  type: "Convolution"
  bottom: "Convolution1"
  top: "Convolution2"
  param {
    lr_mult: 1
    decay_mult: 1
  }
  param {
    lr_mult: 2
    decay_mult: 0
  }
  convolution_param {
    num_output: 160
    pad: 1
    kernel_size: 3
    stride: 1
    weight_filler {
      type: "msra"
    }
    bias_filler {
      type: "constant"
      value: 0
    }
  }
}
layer {
  name: "BatchNorm2"
  type: "BatchNorm"
  bottom: "Convolution2"
  top: "Convolution2"
  param {
    lr_mult: 0
    decay_mult: 0
  }
  param {
    lr_mult: 0
    decay_mult: 0
  }
  param {
    lr_mult: 0
    decay_mult: 0
  }
}
layer {
  name: "Scale2"
  type: "Scale"
  bottom: "Convolution2"
  top: "Convolution2"
  scale_param {
    bias_term: true
  }
}
layer {
  name: "ReLU2"
  type: "ReLU"
  bottom: "Convolution2"
  top: "Convolution2"
}
layer {
  name: "Convolution3"
  type: "Convolution"
  bottom: "Convolution2"
  top: "Convolution3"
  param {
    lr_mult: 1
    decay_mult: 1
  }
  param {
    lr_mult: 2
    decay_mult: 0
  }
  convolution_param {
    num_output: 160
    pad: 1
    kernel_size: 3
    stride: 1
    weight_filler {
      type: "msra"
    }
    bias_filler {
      type: "constant"
      value: 0
    }
  }
}
layer {
  name: "BatchNorm3"
  type: "BatchNorm"
  bottom: "Convolution3"
  top: "Convolution3"
  param {
    lr_mult: 0
    decay_mult: 0
  }
  param {
    lr_mult: 0
    decay_mult: 0
  }
  param {
    lr_mult: 0
    decay_mult: 0
  }
}
layer {
  name: "Scale3"
  type: "Scale"
  bottom: "Convolution3"
  top: "Convolution3"
  scale_param {
    bias_term: true
  }
}
layer {
  name: "Eltwise1"
  type: "Eltwise"
  bottom: "Convolution1"
  bottom: "Convolution3"
  top: "Eltwise1"
  eltwise_param {
    operation: SUM
  }
}
layer {
  name: "ReLU3"
  type: "ReLU"
  bottom: "Eltwise1"
  top: "Eltwise1"
}
layer {
  name: "Convolution4"
  type: "Convolution"
  bottom: "Eltwise1"
  top: "Convolution4"
  param {
    lr_mult: 1
    decay_mult: 1
  }
  param {
    lr_mult: 2
    decay_mult: 0
  }
  convolution_param {
    num_output: 160
    pad: 1
    kernel_size: 3
    stride: 1
    weight_filler {
      type: "msra"
    }
    bias_filler {
      type: "constant"
      value: 0
    }
  }
}
layer {
  name: "BatchNorm4"
  type: "BatchNorm"
  bottom: "Convolution4"
  top: "Convolution4"
  param {
    lr_mult: 0
    decay_mult: 0
  }
  param {
    lr_mult: 0
    decay_mult: 0
  }
  param {
    lr_mult: 0
    decay_mult: 0
  }
}
layer {
  name: "Scale4"
  type: "Scale"
  bottom: "Convolution4"
  top: "Convolution4"
  scale_param {
    bias_term: true
  }
}
layer {
  name: "ReLU4"
  type: "ReLU"
  bottom: "Convolution4"
  top: "Convolution4"
}
layer {
  name: "Convolution5"
  type: "Convolution"
  bottom: "Convolution4"
  top: "Convolution5"
  param {
    lr_mult: 1
    decay_mult: 1
  }
  param {
    lr_mult: 2
    decay_mult: 0
  }
  convolution_param {
    num_output: 160
    pad: 1
    kernel_size: 3
    stride: 1
    weight_filler {
      type: "msra"
    }
    bias_filler {
      type: "constant"
      value: 0
    }
  }
}
layer {
  name: "BatchNorm5"
  type: "BatchNorm"
  bottom: "Convolution5"
  top: "Convolution5"
  param {
    lr_mult: 0
    decay_mult: 0
  }
  param {
    lr_mult: 0
    decay_mult: 0
  }
  param {
    lr_mult: 0
    decay_mult: 0
  }
}
layer {
  name: "Scale5"
  type: "Scale"
  bottom: "Convolution5"
  top: "Convolution5"
  scale_param {
    bias_term: true
  }
}
layer {
  name: "Eltwise2"
  type: "Eltwise"
  bottom: "Eltwise1"
  bottom: "Convolution5"
  top: "Eltwise2"
  eltwise_param {
    operation: SUM
  }
}
layer {
  name: "ReLU5"
  type: "ReLU"
  bottom: "Eltwise2"
  top: "Eltwise2"
}
layer {
  name: "Convolution6"
  type: "Convolution"
  bottom: "Eltwise2"
  top: "Convolution6"
  param {
    lr_mult: 1
    decay_mult: 1
  }
  param {
    lr_mult: 2
    decay_mult: 0
  }
  convolution_param {
    num_output: 160
    pad: 1
    kernel_size: 3
    stride: 1
    weight_filler {
      type: "msra"
    }
    bias_filler {
      type: "constant"
      value: 0
    }
  }
}
layer {
  name: "BatchNorm6"
  type: "BatchNorm"
  bottom: "Convolution6"
  top: "Convolution6"
  param {
    lr_mult: 0
    decay_mult: 0
  }
  param {
    lr_mult: 0
    decay_mult: 0
  }
  param {
    lr_mult: 0
    decay_mult: 0
  }
}
layer {
  name: "Scale6"
  type: "Scale"
  bottom: "Convolution6"
  top: "Convolution6"
  scale_param {
    bias_term: true
  }
}
layer {
  name: "ReLU6"
  type: "ReLU"
  bottom: "Convolution6"
  top: "Convolution6"
}
layer {
  name: "Convolution7"
  type: "Convolution"
  bottom: "Convolution6"
  top: "Convolution7"
  param {
    lr_mult: 1
    decay_mult: 1
  }
  param {
    lr_mult: 2
    decay_mult: 0
  }
  convolution_param {
    num_output: 160
    pad: 1
    kernel_size: 3
    stride: 1
    weight_filler {
      type: "msra"
    }
    bias_filler {
      type: "constant"
      value: 0
    }
  }
}
layer {
  name: "BatchNorm7"
  type: "BatchNorm"
  bottom: "Convolution7"
  top: "Convolution7"
  param {
    lr_mult: 0
    decay_mult: 0
  }
  param {
    lr_mult: 0
    decay_mult: 0
  }
  param {
    lr_mult: 0
    decay_mult: 0
  }
}
layer {
  name: "Scale7"
  type: "Scale"
  bottom: "Convolution7"
  top: "Convolution7"
  scale_param {
    bias_term: true
  }
}
layer {
  name: "Eltwise3"
  type: "Eltwise"
  bottom: "Eltwise2"
  bottom: "Convolution7"
  top: "Eltwise3"
  eltwise_param {
    operation: SUM
  }
}
layer {
  name: "ReLU7"
  type: "ReLU"
  bottom: "Eltwise3"
  top: "Eltwise3"
}
layer {
  name: "Convolution8"
  type: "Convolution"
  bottom: "Eltwise3"
  top: "Convolution8"
  param {
    lr_mult: 1
    decay_mult: 1
  }
  param {
    lr_mult: 2
    decay_mult: 0
  }
  convolution_param {
    num_output: 160
    pad: 1
    kernel_size: 3
    stride: 1
    weight_filler {
      type: "msra"
    }
    bias_filler {
      type: "constant"
      value: 0
    }
  }
}
layer {
  name: "BatchNorm8"
  type: "BatchNorm"
  bottom: "Convolution8"
  top: "Convolution8"
  param {
    lr_mult: 0
    decay_mult: 0
  }
  param {
    lr_mult: 0
    decay_mult: 0
  }
  param {
    lr_mult: 0
    decay_mult: 0
  }
}
layer {
  name: "Scale8"
  type: "Scale"
  bottom: "Convolution8"
  top: "Convolution8"
  scale_param {
    bias_term: true
  }
}
layer {
  name: "ReLU8"
  type: "ReLU"
  bottom: "Convolution8"
  top: "Convolution8"
}
layer {
  name: "Convolution9"
  type: "Convolution"
  bottom: "Convolution8"
  top: "Convolution9"
  param {
    lr_mult: 1
    decay_mult: 1
  }
  param {
    lr_mult: 2
    decay_mult: 0
  }
  convolution_param {
    num_output: 160
    pad: 1
    kernel_size: 3
    stride: 1
    weight_filler {
      type: "msra"
    }
    bias_filler {
      type: "constant"
      value: 0
    }
  }
}
layer {
  name: "BatchNorm9"
  type: "BatchNorm"
  bottom: "Convolution9"
  top: "Convolution9"
  param {
    lr_mult: 0
    decay_mult: 0
  }
  param {
    lr_mult: 0
    decay_mult: 0
  }
  param {
    lr_mult: 0
    decay_mult: 0
  }
}
layer {
  name: "Scale9"
  type: "Scale"
  bottom: "Convolution9"
  top: "Convolution9"
  scale_param {
    bias_term: true
  }
}
layer {
  name: "Eltwise4"
  type: "Eltwise"
  bottom: "Eltwise3"
  bottom: "Convolution9"
  top: "Eltwise4"
  eltwise_param {
    operation: SUM
  }
}
layer {
  name: "ReLU9"
  type: "ReLU"
  bottom: "Eltwise4"
  top: "Eltwise4"
}
layer {
  name: "Convolution10"
  type: "Convolution"
  bottom: "Eltwise4"
  top: "Convolution10"
  param {
    lr_mult: 1
    decay_mult: 1
  }
  param {
    lr_mult: 2
    decay_mult: 0
  }
  convolution_param {
    num_output: 160
    pad: 1
    kernel_size: 3
    stride: 1
    weight_filler {
      type: "msra"
    }
    bias_filler {
      type: "constant"
      value: 0
    }
  }
}
layer {
  name: "BatchNorm10"
  type: "BatchNorm"
  bottom: "Convolution10"
  top: "Convolution10"
  param {
    lr_mult: 0
    decay_mult: 0
  }
  param {
    lr_mult: 0
    decay_mult: 0
  }
  param {
    lr_mult: 0
    decay_mult: 0
  }
}
layer {
  name: "Scale10"
  type: "Scale"
  bottom: "Convolution10"
  top: "Convolution10"
  scale_param {
    bias_term: true
  }
}
layer {
  name: "ReLU10"
  type: "ReLU"
  bottom: "Convolution10"
  top: "Convolution10"
}
layer {
  name: "Convolution11"
  type: "Convolution"
  bottom: "Convolution10"
  top: "Convolution11"
  param {
    lr_mult: 1
    decay_mult: 1
  }
  param {
    lr_mult: 2
    decay_mult: 0
  }
  convolution_param {
    num_output: 160
    pad: 1
    kernel_size: 3
    stride: 1
    weight_filler {
      type: "msra"
    }
    bias_filler {
      type: "constant"
      value: 0
    }
  }
}
layer {
  name: "BatchNorm11"
  type: "BatchNorm"
  bottom: "Convolution11"
  top: "Convolution11"
  param {
    lr_mult: 0
    decay_mult: 0
  }
  param {
    lr_mult: 0
    decay_mult: 0
  }
  param {
    lr_mult: 0
    decay_mult: 0
  }
}
layer {
  name: "Scale11"
  type: "Scale"
  bottom: "Convolution11"
  top: "Convolution11"
  scale_param {
    bias_term: true
  }
}
layer {
  name: "Eltwise5"
  type: "Eltwise"
  bottom: "Eltwise4"
  bottom: "Convolution11"
  top: "Eltwise5"
  eltwise_param {
    operation: SUM
  }
}
layer {
  name: "ReLU11"
  type: "ReLU"
  bottom: "Eltwise5"
  top: "Eltwise5"
}
layer {
  name: "Convolution12"
  type: "Convolution"
  bottom: "Eltwise5"
  top: "Convolution12"
  param {
    lr_mult: 1
    decay_mult: 1
  }
  param {
    lr_mult: 2
    decay_mult: 0
  }
  convolution_param {
    num_output: 320
    pad: 0
    kernel_size: 1
    stride: 2
    weight_filler {
      type: "msra"
    }
    bias_filler {
      type: "constant"
      value: 0
    }
  }
}
layer {
  name: "BatchNorm12"
  type: "BatchNorm"
  bottom: "Convolution12"
  top: "Convolution12"
  param {
    lr_mult: 0
    decay_mult: 0
  }
  param {
    lr_mult: 0
    decay_mult: 0
  }
  param {
    lr_mult: 0
    decay_mult: 0
  }
}
layer {
  name: "Scale12"
  type: "Scale"
  bottom: "Convolution12"
  top: "Convolution12"
  scale_param {
    bias_term: true
  }
}
layer {
  name: "Convolution13"
  type: "Convolution"
  bottom: "Eltwise5"
  top: "Convolution13"
  param {
    lr_mult: 1
    decay_mult: 1
  }
  param {
    lr_mult: 2
    decay_mult: 0
  }
  convolution_param {
    num_output: 320
    pad: 1
    kernel_size: 3
    stride: 2
    weight_filler {
      type: "msra"
    }
    bias_filler {
      type: "constant"
      value: 0
    }
  }
}
layer {
  name: "BatchNorm13"
  type: "BatchNorm"
  bottom: "Convolution13"
  top: "Convolution13"
  param {
    lr_mult: 0
    decay_mult: 0
  }
  param {
    lr_mult: 0
    decay_mult: 0
  }
  param {
    lr_mult: 0
    decay_mult: 0
  }
}
layer {
  name: "Scale13"
  type: "Scale"
  bottom: "Convolution13"
  top: "Convolution13"
  scale_param {
    bias_term: true
  }
}
layer {
  name: "ReLU12"
  type: "ReLU"
  bottom: "Convolution13"
  top: "Convolution13"
}
layer {
  name: "Convolution14"
  type: "Convolution"
  bottom: "Convolution13"
  top: "Convolution14"
  param {
    lr_mult: 1
    decay_mult: 1
  }
  param {
    lr_mult: 2
    decay_mult: 0
  }
  convolution_param {
    num_output: 320
    pad: 1
    kernel_size: 3
    stride: 1
    weight_filler {
      type: "msra"
    }
    bias_filler {
      type: "constant"
      value: 0
    }
  }
}
layer {
  name: "BatchNorm14"
  type: "BatchNorm"
  bottom: "Convolution14"
  top: "Convolution14"
  param {
    lr_mult: 0
    decay_mult: 0
  }
  param {
    lr_mult: 0
    decay_mult: 0
  }
  param {
    lr_mult: 0
    decay_mult: 0
  }
}
layer {
  name: "Scale14"
  type: "Scale"
  bottom: "Convolution14"
  top: "Convolution14"
  scale_param {
    bias_term: true
  }
}
layer {
  name: "Eltwise6"
  type: "Eltwise"
  bottom: "Convolution12"
  bottom: "Convolution14"
  top: "Eltwise6"
  eltwise_param {
    operation: SUM
  }
}
layer {
  name: "ReLU13"
  type: "ReLU"
  bottom: "Eltwise6"
  top: "Eltwise6"
}
layer {
  name: "Convolution15"
  type: "Convolution"
  bottom: "Eltwise6"
  top: "Convolution15"
  param {
    lr_mult: 1
    decay_mult: 1
  }
  param {
    lr_mult: 2
    decay_mult: 0
  }
  convolution_param {
    num_output: 320
    pad: 1
    kernel_size: 3
    stride: 1
    weight_filler {
      type: "msra"
    }
    bias_filler {
      type: "constant"
      value: 0
    }
  }
}
layer {
  name: "BatchNorm15"
  type: "BatchNorm"
  bottom: "Convolution15"
  top: "Convolution15"
  param {
    lr_mult: 0
    decay_mult: 0
  }
  param {
    lr_mult: 0
    decay_mult: 0
  }
  param {
    lr_mult: 0
    decay_mult: 0
  }
}
layer {
  name: "Scale15"
  type: "Scale"
  bottom: "Convolution15"
  top: "Convolution15"
  scale_param {
    bias_term: true
  }
}
layer {
  name: "ReLU14"
  type: "ReLU"
  bottom: "Convolution15"
  top: "Convolution15"
}
layer {
  name: "Convolution16"
  type: "Convolution"
  bottom: "Convolution15"
  top: "Convolution16"
  param {
    lr_mult: 1
    decay_mult: 1
  }
  param {
    lr_mult: 2
    decay_mult: 0
  }
  convolution_param {
    num_output: 320
    pad: 1
    kernel_size: 3
    stride: 1
    weight_filler {
      type: "msra"
    }
    bias_filler {
      type: "constant"
      value: 0
    }
  }
}
layer {
  name: "BatchNorm16"
  type: "BatchNorm"
  bottom: "Convolution16"
  top: "Convolution16"
  param {
    lr_mult: 0
    decay_mult: 0
  }
  param {
    lr_mult: 0
    decay_mult: 0
  }
  param {
    lr_mult: 0
    decay_mult: 0
  }
}
layer {
  name: "Scale16"
  type: "Scale"
  bottom: "Convolution16"
  top: "Convolution16"
  scale_param {
    bias_term: true
  }
}
layer {
  name: "Eltwise7"
  type: "Eltwise"
  bottom: "Eltwise6"
  bottom: "Convolution16"
  top: "Eltwise7"
  eltwise_param {
    operation: SUM
  }
}
layer {
  name: "ReLU15"
  type: "ReLU"
  bottom: "Eltwise7"
  top: "Eltwise7"
}
layer {
  name: "Convolution17"
  type: "Convolution"
  bottom: "Eltwise7"
  top: "Convolution17"
  param {
    lr_mult: 1
    decay_mult: 1
  }
  param {
    lr_mult: 2
    decay_mult: 0
  }
  convolution_param {
    num_output: 320
    pad: 1
    kernel_size: 3
    stride: 1
    weight_filler {
      type: "msra"
    }
    bias_filler {
      type: "constant"
      value: 0
    }
  }
}
layer {
  name: "BatchNorm17"
  type: "BatchNorm"
  bottom: "Convolution17"
  top: "Convolution17"
  param {
    lr_mult: 0
    decay_mult: 0
  }
  param {
    lr_mult: 0
    decay_mult: 0
  }
  param {
    lr_mult: 0
    decay_mult: 0
  }
}
layer {
  name: "Scale17"
  type: "Scale"
  bottom: "Convolution17"
  top: "Convolution17"
  scale_param {
    bias_term: true
  }
}
layer {
  name: "ReLU16"
  type: "ReLU"
  bottom: "Convolution17"
  top: "Convolution17"
}
layer {
  name: "Convolution18"
  type: "Convolution"
  bottom: "Convolution17"
  top: "Convolution18"
  param {
    lr_mult: 1
    decay_mult: 1
  }
  param {
    lr_mult: 2
    decay_mult: 0
  }
  convolution_param {
    num_output: 320
    pad: 1
    kernel_size: 3
    stride: 1
    weight_filler {
      type: "msra"
    }
    bias_filler {
      type: "constant"
      value: 0
    }
  }
}
layer {
  name: "BatchNorm18"
  type: "BatchNorm"
  bottom: "Convolution18"
  top: "Convolution18"
  param {
    lr_mult: 0
    decay_mult: 0
  }
  param {
    lr_mult: 0
    decay_mult: 0
  }
  param {
    lr_mult: 0
    decay_mult: 0
  }
}
layer {
  name: "Scale18"
  type: "Scale"
  bottom: "Convolution18"
  top: "Convolution18"
  scale_param {
    bias_term: true
  }
}
layer {
  name: "Eltwise8"
  type: "Eltwise"
  bottom: "Eltwise7"
  bottom: "Convolution18"
  top: "Eltwise8"
  eltwise_param {
    operation: SUM
  }
}
layer {
  name: "ReLU17"
  type: "ReLU"
  bottom: "Eltwise8"
  top: "Eltwise8"
}
layer {
  name: "Convolution19"
  type: "Convolution"
  bottom: "Eltwise8"
  top: "Convolution19"
  param {
    lr_mult: 1
    decay_mult: 1
  }
  param {
    lr_mult: 2
    decay_mult: 0
  }
  convolution_param {
    num_output: 320
    pad: 1
    kernel_size: 3
    stride: 1
    weight_filler {
      type: "msra"
    }
    bias_filler {
      type: "constant"
      value: 0
    }
  }
}
layer {
  name: "BatchNorm19"
  type: "BatchNorm"
  bottom: "Convolution19"
  top: "Convolution19"
  param {
    lr_mult: 0
    decay_mult: 0
  }
  param {
    lr_mult: 0
    decay_mult: 0
  }
  param {
    lr_mult: 0
    decay_mult: 0
  }
}
layer {
  name: "Scale19"
  type: "Scale"
  bottom: "Convolution19"
  top: "Convolution19"
  scale_param {
    bias_term: true
  }
}
layer {
  name: "ReLU18"
  type: "ReLU"
  bottom: "Convolution19"
  top: "Convolution19"
}
layer {
  name: "Convolution20"
  type: "Convolution"
  bottom: "Convolution19"
  top: "Convolution20"
  param {
    lr_mult: 1
    decay_mult: 1
  }
  param {
    lr_mult: 2
    decay_mult: 0
  }
  convolution_param {
    num_output: 320
    pad: 1
    kernel_size: 3
    stride: 1
    weight_filler {
      type: "msra"
    }
    bias_filler {
      type: "constant"
      value: 0
    }
  }
}
layer {
  name: "BatchNorm20"
  type: "BatchNorm"
  bottom: "Convolution20"
  top: "Convolution20"
  param {
    lr_mult: 0
    decay_mult: 0
  }
  param {
    lr_mult: 0
    decay_mult: 0
  }
  param {
    lr_mult: 0
    decay_mult: 0
  }
}
layer {
  name: "Scale20"
  type: "Scale"
  bottom: "Convolution20"
  top: "Convolution20"
  scale_param {
    bias_term: true
  }
}
layer {
  name: "Eltwise9"
  type: "Eltwise"
  bottom: "Eltwise8"
  bottom: "Convolution20"
  top: "Eltwise9"
  eltwise_param {
    operation: SUM
  }
}
layer {
  name: "ReLU19"
  type: "ReLU"
  bottom: "Eltwise9"
  top: "Eltwise9"
}
layer {
  name: "Convolution23"
  type: "Convolution"
  bottom: "Eltwise9"
  top: "Convolution23"
  param {
    lr_mult: 1
    decay_mult: 1
  }
  param {
    lr_mult: 2
    decay_mult: 0
  }
  convolution_param {
    num_output: 640
    pad: 0
    kernel_size: 1
    stride: 2
    weight_filler {
      type: "msra"
    }
    bias_filler {
      type: "constant"
      value: 0
    }
  }
}
layer {
  name: "BatchNorm23"
  type: "BatchNorm"
  bottom: "Convolution23"
  top: "Convolution23"
  param {
    lr_mult: 0
    decay_mult: 0
  }
  param {
    lr_mult: 0
    decay_mult: 0
  }
  param {
    lr_mult: 0
    decay_mult: 0
  }
}
layer {
  name: "Scale23"
  type: "Scale"
  bottom: "Convolution23"
  top: "Convolution23"
  scale_param {
    bias_term: true
  }
}
layer {
  name: "Convolution24"
  type: "Convolution"
  bottom: "Eltwise9"
  top: "Convolution24"
  param {
    lr_mult: 1
    decay_mult: 1
  }
  param {
    lr_mult: 2
    decay_mult: 0
  }
  convolution_param {
    num_output: 640
    pad: 1
    kernel_size: 3
    stride: 2
    weight_filler {
      type: "msra"
    }
    bias_filler {
      type: "constant"
      value: 0
    }
  }
}
layer {
  name: "BatchNorm24"
  type: "BatchNorm"
  bottom: "Convolution24"
  top: "Convolution24"
  param {
    lr_mult: 0
    decay_mult: 0
  }
  param {
    lr_mult: 0
    decay_mult: 0
  }
  param {
    lr_mult: 0
    decay_mult: 0
  }
}
layer {
  name: "Scale24"
  type: "Scale"
  bottom: "Convolution24"
  top: "Convolution24"
  scale_param {
    bias_term: true
  }
}
layer {
  name: "ReLU22"
  type: "ReLU"
  bottom: "Convolution24"
  top: "Convolution24"
}
layer {
  name: "Convolution25"
  type: "Convolution"
  bottom: "Convolution24"
  top: "Convolution25"
  param {
    lr_mult: 1
    decay_mult: 1
  }
  param {
    lr_mult: 2
    decay_mult: 0
  }
  convolution_param {
    num_output: 640
    pad: 1
    kernel_size: 3
    stride: 1
    weight_filler {
      type: "msra"
    }
    bias_filler {
      type: "constant"
      value: 0
    }
  }
}
layer {
  name: "BatchNorm25"
  type: "BatchNorm"
  bottom: "Convolution25"
  top: "Convolution25"
  param {
    lr_mult: 0
    decay_mult: 0
  }
  param {
    lr_mult: 0
    decay_mult: 0
  }
  param {
    lr_mult: 0
    decay_mult: 0
  }
}
layer {
  name: "Scale25"
  type: "Scale"
  bottom: "Convolution25"
  top: "Convolution25"
  scale_param {
    bias_term: true
  }
}
layer {
  name: "Eltwise11"
  type: "Eltwise"
  bottom: "Convolution23"
  bottom: "Convolution25"
  top: "Eltwise11"
  eltwise_param {
    operation: SUM
  }
}
layer {
  name: "ReLU23"
  type: "ReLU"
  bottom: "Eltwise11"
  top: "Eltwise11"
}
layer {
  name: "Convolution26"
  type: "Convolution"
  bottom: "Eltwise11"
  top: "Convolution26"
  param {
    lr_mult: 1
    decay_mult: 1
  }
  param {
    lr_mult: 2
    decay_mult: 0
  }
  convolution_param {
    num_output: 640
    pad: 1
    kernel_size: 3
    stride: 1
    weight_filler {
      type: "msra"
    }
    bias_filler {
      type: "constant"
      value: 0
    }
  }
}
layer {
  name: "BatchNorm26"
  type: "BatchNorm"
  bottom: "Convolution26"
  top: "Convolution26"
  param {
    lr_mult: 0
    decay_mult: 0
  }
  param {
    lr_mult: 0
    decay_mult: 0
  }
  param {
    lr_mult: 0
    decay_mult: 0
  }
}
layer {
  name: "Scale26"
  type: "Scale"
  bottom: "Convolution26"
  top: "Convolution26"
  scale_param {
    bias_term: true
  }
}
layer {
  name: "ReLU24"
  type: "ReLU"
  bottom: "Convolution26"
  top: "Convolution26"
}
layer {
  name: "Convolution27"
  type: "Convolution"
  bottom: "Convolution26"
  top: "Convolution27"
  param {
    lr_mult: 1
    decay_mult: 1
  }
  param {
    lr_mult: 2
    decay_mult: 0
  }
  convolution_param {
    num_output: 640
    pad: 1
    kernel_size: 3
    stride: 1
    weight_filler {
      type: "msra"
    }
    bias_filler {
      type: "constant"
      value: 0
    }
  }
}
layer {
  name: "BatchNorm27"
  type: "BatchNorm"
  bottom: "Convolution27"
  top: "Convolution27"
  param {
    lr_mult: 0
    decay_mult: 0
  }
  param {
    lr_mult: 0
    decay_mult: 0
  }
  param {
    lr_mult: 0
    decay_mult: 0
  }
}
layer {
  name: "Scale27"
  type: "Scale"
  bottom: "Convolution27"
  top: "Convolution27"
  scale_param {
    bias_term: true
  }
}
layer {
  name: "Eltwise12"
  type: "Eltwise"
  bottom: "Eltwise11"
  bottom: "Convolution27"
  top: "Eltwise12"
  eltwise_param {
    operation: SUM
  }
}
layer {
  name: "ReLU25"
  type: "ReLU"
  bottom: "Eltwise12"
  top: "Eltwise12"
}
layer {
  name: "Convolution28"
  type: "Convolution"
  bottom: "Eltwise12"
  top: "Convolution28"
  param {
    lr_mult: 1
    decay_mult: 1
  }
  param {
    lr_mult: 2
    decay_mult: 0
  }
  convolution_param {
    num_output: 640
    pad: 1
    kernel_size: 3
    stride: 1
    weight_filler {
      type: "msra"
    }
    bias_filler {
      type: "constant"
      value: 0
    }
  }
}
layer {
  name: "BatchNorm28"
  type: "BatchNorm"
  bottom: "Convolution28"
  top: "Convolution28"
  param {
    lr_mult: 0
    decay_mult: 0
  }
  param {
    lr_mult: 0
    decay_mult: 0
  }
  param {
    lr_mult: 0
    decay_mult: 0
  }
}
layer {
  name: "Scale28"
  type: "Scale"
  bottom: "Convolution28"
  top: "Convolution28"
  scale_param {
    bias_term: true
  }
}
layer {
  name: "ReLU26"
  type: "ReLU"
  bottom: "Convolution28"
  top: "Convolution28"
}
layer {
  name: "Convolution29"
  type: "Convolution"
  bottom: "Convolution28"
  top: "Convolution29"
  param {
    lr_mult: 1
    decay_mult: 1
  }
  param {
    lr_mult: 2
    decay_mult: 0
  }
  convolution_param {
    num_output: 640
    pad: 1
    kernel_size: 3
    stride: 1
    weight_filler {
      type: "msra"
    }
    bias_filler {
      type: "constant"
      value: 0
    }
  }
}
layer {
  name: "BatchNorm29"
  type: "BatchNorm"
  bottom: "Convolution29"
  top: "Convolution29"
  param {
    lr_mult: 0
    decay_mult: 0
  }
  param {
    lr_mult: 0
    decay_mult: 0
  }
  param {
    lr_mult: 0
    decay_mult: 0
  }
}
layer {
  name: "Scale29"
  type: "Scale"
  bottom: "Convolution29"
  top: "Convolution29"
  scale_param {
    bias_term: true
  }
}
layer {
  name: "Eltwise13"
  type: "Eltwise"
  bottom: "Eltwise12"
  bottom: "Convolution29"
  top: "Eltwise13"
  eltwise_param {
    operation: SUM
  }
}
layer {
  name: "ReLU27"
  type: "ReLU"
  bottom: "Eltwise13"
  top: "Eltwise13"
}
layer {
  name: "Convolution30"
  type: "Convolution"
  bottom: "Eltwise13"
  top: "Convolution30"
  param {
    lr_mult: 1
    decay_mult: 1
  }
  param {
    lr_mult: 2
    decay_mult: 0
  }
  convolution_param {
    num_output: 640
    pad: 1
    kernel_size: 3
    stride: 1
    weight_filler {
      type: "msra"
    }
    bias_filler {
      type: "constant"
      value: 0
    }
  }
}
layer {
  name: "BatchNorm30"
  type: "BatchNorm"
  bottom: "Convolution30"
  top: "Convolution30"
  param {
    lr_mult: 0
    decay_mult: 0
  }
  param {
    lr_mult: 0
    decay_mult: 0
  }
  param {
    lr_mult: 0
    decay_mult: 0
  }
}
layer {
  name: "Scale30"
  type: "Scale"
  bottom: "Convolution30"
  top: "Convolution30"
  scale_param {
    bias_term: true
  }
}
layer {
  name: "ReLU28"
  type: "ReLU"
  bottom: "Convolution30"
  top: "Convolution30"
}
layer {
  name: "Convolution31"
  type: "Convolution"
  bottom: "Convolution30"
  top: "Convolution31"
  param {
    lr_mult: 1
    decay_mult: 1
  }
  param {
    lr_mult: 2
    decay_mult: 0
  }
  convolution_param {
    num_output: 640
    pad: 1
    kernel_size: 3
    stride: 1
    weight_filler {
      type: "msra"
    }
    bias_filler {
      type: "constant"
      value: 0
    }
  }
}
layer {
  name: "BatchNorm31"
  type: "BatchNorm"
  bottom: "Convolution31"
  top: "Convolution31"
  param {
    lr_mult: 0
    decay_mult: 0
  }
  param {
    lr_mult: 0
    decay_mult: 0
  }
  param {
    lr_mult: 0
    decay_mult: 0
  }
}
layer {
  name: "Scale31"
  type: "Scale"
  bottom: "Convolution31"
  top: "Convolution31"
  scale_param {
    bias_term: true
  }
}
layer {
  name: "Eltwise14"
  type: "Eltwise"
  bottom: "Eltwise13"
  bottom: "Convolution31"
  top: "Eltwise14"
  eltwise_param {
    operation: SUM
  }
}
layer {
  name: "ReLU29"
  type: "ReLU"
  bottom: "Eltwise14"
  top: "Eltwise14"
}
layer {
  name: "Pooling1"
  type: "Pooling"
  bottom: "Eltwise14"
  top: "Pooling1"
  pooling_param {
    pool: AVE
    global_pooling: true
  }
}
layer {
  name: "InnerProduct1"
  type: "InnerProduct"
  bottom: "Pooling1"
  top: "InnerProduct1"
  param {
    lr_mult: 1
    decay_mult: 1
  }
  param {
    lr_mult: 2
    decay_mult: 1
  }
  inner_product_param {
    num_output: 10
    weight_filler {
      type: "msra"
    }
    bias_filler {
      type: "constant"
      value: 0
    }
  }
}
layer {
  name: "SoftmaxWithLoss1"
  type: "SoftmaxWithLoss"
  bottom: "InnerProduct1"
  bottom: "Data2"
  top: "SoftmaxWithLoss1"
}
I0129 22:47:03.236222  7239 layer_factory.hpp:77] Creating layer Data1
I0129 22:47:03.236331  7239 db_lmdb.cpp:35] Opened lmdb data/cifar10/cifar10_pad4_train_lmdb
I0129 22:47:03.236356  7239 net.cpp:84] Creating Layer Data1
I0129 22:47:03.236366  7239 net.cpp:380] Data1 -> Data1
I0129 22:47:03.236387  7239 net.cpp:380] Data1 -> Data2
I0129 22:47:03.236398  7239 data_transformer.cpp:25] Loading mean file from: data/cifar10/pad4_mean.binaryproto
I0129 22:47:03.238008  7239 data_layer.cpp:45] output data size: 32,3,32,32
I0129 22:47:03.239398  7239 net.cpp:122] Setting up Data1
I0129 22:47:03.239413  7239 net.cpp:129] Top shape: 32 3 32 32 (98304)
I0129 22:47:03.239419  7239 net.cpp:129] Top shape: 32 (32)
I0129 22:47:03.239423  7239 net.cpp:137] Memory required for data: 393344
I0129 22:47:03.239429  7239 layer_factory.hpp:77] Creating layer Convolution1
I0129 22:47:03.239446  7239 net.cpp:84] Creating Layer Convolution1
I0129 22:47:03.239452  7239 net.cpp:406] Convolution1 <- Data1
I0129 22:47:03.239464  7239 net.cpp:380] Convolution1 -> Convolution1
I0129 22:47:03.443248  7239 net.cpp:122] Setting up Convolution1
I0129 22:47:03.443274  7239 net.cpp:129] Top shape: 32 160 32 32 (5242880)
I0129 22:47:03.443277  7239 net.cpp:137] Memory required for data: 21364864
I0129 22:47:03.443298  7239 layer_factory.hpp:77] Creating layer BatchNorm1
I0129 22:47:03.443310  7239 net.cpp:84] Creating Layer BatchNorm1
I0129 22:47:03.443315  7239 net.cpp:406] BatchNorm1 <- Convolution1
I0129 22:47:03.443320  7239 net.cpp:367] BatchNorm1 -> Convolution1 (in-place)
I0129 22:47:03.443459  7239 net.cpp:122] Setting up BatchNorm1
I0129 22:47:03.443465  7239 net.cpp:129] Top shape: 32 160 32 32 (5242880)
I0129 22:47:03.443467  7239 net.cpp:137] Memory required for data: 42336384
I0129 22:47:03.443475  7239 layer_factory.hpp:77] Creating layer Scale1
I0129 22:47:03.443482  7239 net.cpp:84] Creating Layer Scale1
I0129 22:47:03.443485  7239 net.cpp:406] Scale1 <- Convolution1
I0129 22:47:03.443490  7239 net.cpp:367] Scale1 -> Convolution1 (in-place)
I0129 22:47:03.443521  7239 layer_factory.hpp:77] Creating layer Scale1
I0129 22:47:03.443594  7239 net.cpp:122] Setting up Scale1
I0129 22:47:03.443600  7239 net.cpp:129] Top shape: 32 160 32 32 (5242880)
I0129 22:47:03.443603  7239 net.cpp:137] Memory required for data: 63307904
I0129 22:47:03.443608  7239 layer_factory.hpp:77] Creating layer ReLU1
I0129 22:47:03.443614  7239 net.cpp:84] Creating Layer ReLU1
I0129 22:47:03.443616  7239 net.cpp:406] ReLU1 <- Convolution1
I0129 22:47:03.443619  7239 net.cpp:367] ReLU1 -> Convolution1 (in-place)
I0129 22:47:03.443752  7239 net.cpp:122] Setting up ReLU1
I0129 22:47:03.443758  7239 net.cpp:129] Top shape: 32 160 32 32 (5242880)
I0129 22:47:03.443760  7239 net.cpp:137] Memory required for data: 84279424
I0129 22:47:03.443763  7239 layer_factory.hpp:77] Creating layer Convolution1_ReLU1_0_split
I0129 22:47:03.443768  7239 net.cpp:84] Creating Layer Convolution1_ReLU1_0_split
I0129 22:47:03.443770  7239 net.cpp:406] Convolution1_ReLU1_0_split <- Convolution1
I0129 22:47:03.443774  7239 net.cpp:380] Convolution1_ReLU1_0_split -> Convolution1_ReLU1_0_split_0
I0129 22:47:03.443780  7239 net.cpp:380] Convolution1_ReLU1_0_split -> Convolution1_ReLU1_0_split_1
I0129 22:47:03.443810  7239 net.cpp:122] Setting up Convolution1_ReLU1_0_split
I0129 22:47:03.443815  7239 net.cpp:129] Top shape: 32 160 32 32 (5242880)
I0129 22:47:03.443819  7239 net.cpp:129] Top shape: 32 160 32 32 (5242880)
I0129 22:47:03.443821  7239 net.cpp:137] Memory required for data: 126222464
I0129 22:47:03.443825  7239 layer_factory.hpp:77] Creating layer Convolution2
I0129 22:47:03.443832  7239 net.cpp:84] Creating Layer Convolution2
I0129 22:47:03.443835  7239 net.cpp:406] Convolution2 <- Convolution1_ReLU1_0_split_0
I0129 22:47:03.443853  7239 net.cpp:380] Convolution2 -> Convolution2
I0129 22:47:03.447315  7239 net.cpp:122] Setting up Convolution2
I0129 22:47:03.447327  7239 net.cpp:129] Top shape: 32 160 32 32 (5242880)
I0129 22:47:03.447331  7239 net.cpp:137] Memory required for data: 147193984
I0129 22:47:03.447340  7239 layer_factory.hpp:77] Creating layer BatchNorm2
I0129 22:47:03.447345  7239 net.cpp:84] Creating Layer BatchNorm2
I0129 22:47:03.447350  7239 net.cpp:406] BatchNorm2 <- Convolution2
I0129 22:47:03.447353  7239 net.cpp:367] BatchNorm2 -> Convolution2 (in-place)
I0129 22:47:03.447481  7239 net.cpp:122] Setting up BatchNorm2
I0129 22:47:03.447487  7239 net.cpp:129] Top shape: 32 160 32 32 (5242880)
I0129 22:47:03.447489  7239 net.cpp:137] Memory required for data: 168165504
I0129 22:47:03.447494  7239 layer_factory.hpp:77] Creating layer Scale2
I0129 22:47:03.447501  7239 net.cpp:84] Creating Layer Scale2
I0129 22:47:03.447505  7239 net.cpp:406] Scale2 <- Convolution2
I0129 22:47:03.447509  7239 net.cpp:367] Scale2 -> Convolution2 (in-place)
I0129 22:47:03.447533  7239 layer_factory.hpp:77] Creating layer Scale2
I0129 22:47:03.447600  7239 net.cpp:122] Setting up Scale2
I0129 22:47:03.447607  7239 net.cpp:129] Top shape: 32 160 32 32 (5242880)
I0129 22:47:03.447608  7239 net.cpp:137] Memory required for data: 189137024
I0129 22:47:03.447613  7239 layer_factory.hpp:77] Creating layer ReLU2
I0129 22:47:03.447616  7239 net.cpp:84] Creating Layer ReLU2
I0129 22:47:03.447619  7239 net.cpp:406] ReLU2 <- Convolution2
I0129 22:47:03.447623  7239 net.cpp:367] ReLU2 -> Convolution2 (in-place)
I0129 22:47:03.447747  7239 net.cpp:122] Setting up ReLU2
I0129 22:47:03.447754  7239 net.cpp:129] Top shape: 32 160 32 32 (5242880)
I0129 22:47:03.447757  7239 net.cpp:137] Memory required for data: 210108544
I0129 22:47:03.447759  7239 layer_factory.hpp:77] Creating layer Convolution3
I0129 22:47:03.447767  7239 net.cpp:84] Creating Layer Convolution3
I0129 22:47:03.447769  7239 net.cpp:406] Convolution3 <- Convolution2
I0129 22:47:03.447773  7239 net.cpp:380] Convolution3 -> Convolution3
I0129 22:47:03.450495  7239 net.cpp:122] Setting up Convolution3
I0129 22:47:03.450507  7239 net.cpp:129] Top shape: 32 160 32 32 (5242880)
I0129 22:47:03.450510  7239 net.cpp:137] Memory required for data: 231080064
I0129 22:47:03.450516  7239 layer_factory.hpp:77] Creating layer BatchNorm3
I0129 22:47:03.450522  7239 net.cpp:84] Creating Layer BatchNorm3
I0129 22:47:03.450526  7239 net.cpp:406] BatchNorm3 <- Convolution3
I0129 22:47:03.450531  7239 net.cpp:367] BatchNorm3 -> Convolution3 (in-place)
I0129 22:47:03.450661  7239 net.cpp:122] Setting up BatchNorm3
I0129 22:47:03.450667  7239 net.cpp:129] Top shape: 32 160 32 32 (5242880)
I0129 22:47:03.450670  7239 net.cpp:137] Memory required for data: 252051584
I0129 22:47:03.450677  7239 layer_factory.hpp:77] Creating layer Scale3
I0129 22:47:03.450683  7239 net.cpp:84] Creating Layer Scale3
I0129 22:47:03.450685  7239 net.cpp:406] Scale3 <- Convolution3
I0129 22:47:03.450690  7239 net.cpp:367] Scale3 -> Convolution3 (in-place)
I0129 22:47:03.450716  7239 layer_factory.hpp:77] Creating layer Scale3
I0129 22:47:03.450793  7239 net.cpp:122] Setting up Scale3
I0129 22:47:03.450800  7239 net.cpp:129] Top shape: 32 160 32 32 (5242880)
I0129 22:47:03.450803  7239 net.cpp:137] Memory required for data: 273023104
I0129 22:47:03.450806  7239 layer_factory.hpp:77] Creating layer Eltwise1
I0129 22:47:03.450814  7239 net.cpp:84] Creating Layer Eltwise1
I0129 22:47:03.450816  7239 net.cpp:406] Eltwise1 <- Convolution1_ReLU1_0_split_1
I0129 22:47:03.450819  7239 net.cpp:406] Eltwise1 <- Convolution3
I0129 22:47:03.450824  7239 net.cpp:380] Eltwise1 -> Eltwise1
I0129 22:47:03.450842  7239 net.cpp:122] Setting up Eltwise1
I0129 22:47:03.450847  7239 net.cpp:129] Top shape: 32 160 32 32 (5242880)
I0129 22:47:03.450850  7239 net.cpp:137] Memory required for data: 293994624
I0129 22:47:03.450851  7239 layer_factory.hpp:77] Creating layer ReLU3
I0129 22:47:03.450855  7239 net.cpp:84] Creating Layer ReLU3
I0129 22:47:03.450868  7239 net.cpp:406] ReLU3 <- Eltwise1
I0129 22:47:03.450872  7239 net.cpp:367] ReLU3 -> Eltwise1 (in-place)
I0129 22:47:03.450996  7239 net.cpp:122] Setting up ReLU3
I0129 22:47:03.451004  7239 net.cpp:129] Top shape: 32 160 32 32 (5242880)
I0129 22:47:03.451005  7239 net.cpp:137] Memory required for data: 314966144
I0129 22:47:03.451007  7239 layer_factory.hpp:77] Creating layer Eltwise1_ReLU3_0_split
I0129 22:47:03.451012  7239 net.cpp:84] Creating Layer Eltwise1_ReLU3_0_split
I0129 22:47:03.451015  7239 net.cpp:406] Eltwise1_ReLU3_0_split <- Eltwise1
I0129 22:47:03.451019  7239 net.cpp:380] Eltwise1_ReLU3_0_split -> Eltwise1_ReLU3_0_split_0
I0129 22:47:03.451025  7239 net.cpp:380] Eltwise1_ReLU3_0_split -> Eltwise1_ReLU3_0_split_1
I0129 22:47:03.451050  7239 net.cpp:122] Setting up Eltwise1_ReLU3_0_split
I0129 22:47:03.451056  7239 net.cpp:129] Top shape: 32 160 32 32 (5242880)
I0129 22:47:03.451058  7239 net.cpp:129] Top shape: 32 160 32 32 (5242880)
I0129 22:47:03.451061  7239 net.cpp:137] Memory required for data: 356909184
I0129 22:47:03.451063  7239 layer_factory.hpp:77] Creating layer Convolution4
I0129 22:47:03.451071  7239 net.cpp:84] Creating Layer Convolution4
I0129 22:47:03.451074  7239 net.cpp:406] Convolution4 <- Eltwise1_ReLU3_0_split_0
I0129 22:47:03.451079  7239 net.cpp:380] Convolution4 -> Convolution4
I0129 22:47:03.454538  7239 net.cpp:122] Setting up Convolution4
I0129 22:47:03.454551  7239 net.cpp:129] Top shape: 32 160 32 32 (5242880)
I0129 22:47:03.454555  7239 net.cpp:137] Memory required for data: 377880704
I0129 22:47:03.454560  7239 layer_factory.hpp:77] Creating layer BatchNorm4
I0129 22:47:03.454566  7239 net.cpp:84] Creating Layer BatchNorm4
I0129 22:47:03.454571  7239 net.cpp:406] BatchNorm4 <- Convolution4
I0129 22:47:03.454574  7239 net.cpp:367] BatchNorm4 -> Convolution4 (in-place)
I0129 22:47:03.454706  7239 net.cpp:122] Setting up BatchNorm4
I0129 22:47:03.454711  7239 net.cpp:129] Top shape: 32 160 32 32 (5242880)
I0129 22:47:03.454715  7239 net.cpp:137] Memory required for data: 398852224
I0129 22:47:03.454725  7239 layer_factory.hpp:77] Creating layer Scale4
I0129 22:47:03.454730  7239 net.cpp:84] Creating Layer Scale4
I0129 22:47:03.454732  7239 net.cpp:406] Scale4 <- Convolution4
I0129 22:47:03.454736  7239 net.cpp:367] Scale4 -> Convolution4 (in-place)
I0129 22:47:03.454763  7239 layer_factory.hpp:77] Creating layer Scale4
I0129 22:47:03.454838  7239 net.cpp:122] Setting up Scale4
I0129 22:47:03.454843  7239 net.cpp:129] Top shape: 32 160 32 32 (5242880)
I0129 22:47:03.454845  7239 net.cpp:137] Memory required for data: 419823744
I0129 22:47:03.454849  7239 layer_factory.hpp:77] Creating layer ReLU4
I0129 22:47:03.454854  7239 net.cpp:84] Creating Layer ReLU4
I0129 22:47:03.454856  7239 net.cpp:406] ReLU4 <- Convolution4
I0129 22:47:03.454860  7239 net.cpp:367] ReLU4 -> Convolution4 (in-place)
I0129 22:47:03.454998  7239 net.cpp:122] Setting up ReLU4
I0129 22:47:03.455008  7239 net.cpp:129] Top shape: 32 160 32 32 (5242880)
I0129 22:47:03.455010  7239 net.cpp:137] Memory required for data: 440795264
I0129 22:47:03.455013  7239 layer_factory.hpp:77] Creating layer Convolution5
I0129 22:47:03.455020  7239 net.cpp:84] Creating Layer Convolution5
I0129 22:47:03.455024  7239 net.cpp:406] Convolution5 <- Convolution4
I0129 22:47:03.455029  7239 net.cpp:380] Convolution5 -> Convolution5
I0129 22:47:03.457873  7239 net.cpp:122] Setting up Convolution5
I0129 22:47:03.457885  7239 net.cpp:129] Top shape: 32 160 32 32 (5242880)
I0129 22:47:03.457890  7239 net.cpp:137] Memory required for data: 461766784
I0129 22:47:03.457895  7239 layer_factory.hpp:77] Creating layer BatchNorm5
I0129 22:47:03.457901  7239 net.cpp:84] Creating Layer BatchNorm5
I0129 22:47:03.457906  7239 net.cpp:406] BatchNorm5 <- Convolution5
I0129 22:47:03.457911  7239 net.cpp:367] BatchNorm5 -> Convolution5 (in-place)
I0129 22:47:03.458055  7239 net.cpp:122] Setting up BatchNorm5
I0129 22:47:03.458061  7239 net.cpp:129] Top shape: 32 160 32 32 (5242880)
I0129 22:47:03.458063  7239 net.cpp:137] Memory required for data: 482738304
I0129 22:47:03.458082  7239 layer_factory.hpp:77] Creating layer Scale5
I0129 22:47:03.458088  7239 net.cpp:84] Creating Layer Scale5
I0129 22:47:03.458092  7239 net.cpp:406] Scale5 <- Convolution5
I0129 22:47:03.458096  7239 net.cpp:367] Scale5 -> Convolution5 (in-place)
I0129 22:47:03.458125  7239 layer_factory.hpp:77] Creating layer Scale5
I0129 22:47:03.458202  7239 net.cpp:122] Setting up Scale5
I0129 22:47:03.458209  7239 net.cpp:129] Top shape: 32 160 32 32 (5242880)
I0129 22:47:03.458210  7239 net.cpp:137] Memory required for data: 503709824
I0129 22:47:03.458214  7239 layer_factory.hpp:77] Creating layer Eltwise2
I0129 22:47:03.458220  7239 net.cpp:84] Creating Layer Eltwise2
I0129 22:47:03.458223  7239 net.cpp:406] Eltwise2 <- Eltwise1_ReLU3_0_split_1
I0129 22:47:03.458227  7239 net.cpp:406] Eltwise2 <- Convolution5
I0129 22:47:03.458232  7239 net.cpp:380] Eltwise2 -> Eltwise2
I0129 22:47:03.458248  7239 net.cpp:122] Setting up Eltwise2
I0129 22:47:03.458253  7239 net.cpp:129] Top shape: 32 160 32 32 (5242880)
I0129 22:47:03.458256  7239 net.cpp:137] Memory required for data: 524681344
I0129 22:47:03.458257  7239 layer_factory.hpp:77] Creating layer ReLU5
I0129 22:47:03.458261  7239 net.cpp:84] Creating Layer ReLU5
I0129 22:47:03.458264  7239 net.cpp:406] ReLU5 <- Eltwise2
I0129 22:47:03.458269  7239 net.cpp:367] ReLU5 -> Eltwise2 (in-place)
I0129 22:47:03.458740  7239 net.cpp:122] Setting up ReLU5
I0129 22:47:03.458751  7239 net.cpp:129] Top shape: 32 160 32 32 (5242880)
I0129 22:47:03.458755  7239 net.cpp:137] Memory required for data: 545652864
I0129 22:47:03.458757  7239 layer_factory.hpp:77] Creating layer Eltwise2_ReLU5_0_split
I0129 22:47:03.458761  7239 net.cpp:84] Creating Layer Eltwise2_ReLU5_0_split
I0129 22:47:03.458765  7239 net.cpp:406] Eltwise2_ReLU5_0_split <- Eltwise2
I0129 22:47:03.458770  7239 net.cpp:380] Eltwise2_ReLU5_0_split -> Eltwise2_ReLU5_0_split_0
I0129 22:47:03.458777  7239 net.cpp:380] Eltwise2_ReLU5_0_split -> Eltwise2_ReLU5_0_split_1
I0129 22:47:03.458811  7239 net.cpp:122] Setting up Eltwise2_ReLU5_0_split
I0129 22:47:03.458815  7239 net.cpp:129] Top shape: 32 160 32 32 (5242880)
I0129 22:47:03.458819  7239 net.cpp:129] Top shape: 32 160 32 32 (5242880)
I0129 22:47:03.458822  7239 net.cpp:137] Memory required for data: 587595904
I0129 22:47:03.458823  7239 layer_factory.hpp:77] Creating layer Convolution6
I0129 22:47:03.458832  7239 net.cpp:84] Creating Layer Convolution6
I0129 22:47:03.458835  7239 net.cpp:406] Convolution6 <- Eltwise2_ReLU5_0_split_0
I0129 22:47:03.458840  7239 net.cpp:380] Convolution6 -> Convolution6
I0129 22:47:03.462160  7239 net.cpp:122] Setting up Convolution6
I0129 22:47:03.462172  7239 net.cpp:129] Top shape: 32 160 32 32 (5242880)
I0129 22:47:03.462177  7239 net.cpp:137] Memory required for data: 608567424
I0129 22:47:03.462182  7239 layer_factory.hpp:77] Creating layer BatchNorm6
I0129 22:47:03.462188  7239 net.cpp:84] Creating Layer BatchNorm6
I0129 22:47:03.462193  7239 net.cpp:406] BatchNorm6 <- Convolution6
I0129 22:47:03.462196  7239 net.cpp:367] BatchNorm6 -> Convolution6 (in-place)
I0129 22:47:03.462343  7239 net.cpp:122] Setting up BatchNorm6
I0129 22:47:03.462349  7239 net.cpp:129] Top shape: 32 160 32 32 (5242880)
I0129 22:47:03.462352  7239 net.cpp:137] Memory required for data: 629538944
I0129 22:47:03.462357  7239 layer_factory.hpp:77] Creating layer Scale6
I0129 22:47:03.462361  7239 net.cpp:84] Creating Layer Scale6
I0129 22:47:03.462364  7239 net.cpp:406] Scale6 <- Convolution6
I0129 22:47:03.462368  7239 net.cpp:367] Scale6 -> Convolution6 (in-place)
I0129 22:47:03.462397  7239 layer_factory.hpp:77] Creating layer Scale6
I0129 22:47:03.462476  7239 net.cpp:122] Setting up Scale6
I0129 22:47:03.462481  7239 net.cpp:129] Top shape: 32 160 32 32 (5242880)
I0129 22:47:03.462484  7239 net.cpp:137] Memory required for data: 650510464
I0129 22:47:03.462488  7239 layer_factory.hpp:77] Creating layer ReLU6
I0129 22:47:03.462492  7239 net.cpp:84] Creating Layer ReLU6
I0129 22:47:03.462496  7239 net.cpp:406] ReLU6 <- Convolution6
I0129 22:47:03.462512  7239 net.cpp:367] ReLU6 -> Convolution6 (in-place)
I0129 22:47:03.462930  7239 net.cpp:122] Setting up ReLU6
I0129 22:47:03.462942  7239 net.cpp:129] Top shape: 32 160 32 32 (5242880)
I0129 22:47:03.462946  7239 net.cpp:137] Memory required for data: 671481984
I0129 22:47:03.462949  7239 layer_factory.hpp:77] Creating layer Convolution7
I0129 22:47:03.462957  7239 net.cpp:84] Creating Layer Convolution7
I0129 22:47:03.462960  7239 net.cpp:406] Convolution7 <- Convolution6
I0129 22:47:03.462965  7239 net.cpp:380] Convolution7 -> Convolution7
I0129 22:47:03.465768  7239 net.cpp:122] Setting up Convolution7
I0129 22:47:03.465780  7239 net.cpp:129] Top shape: 32 160 32 32 (5242880)
I0129 22:47:03.465783  7239 net.cpp:137] Memory required for data: 692453504
I0129 22:47:03.465788  7239 layer_factory.hpp:77] Creating layer BatchNorm7
I0129 22:47:03.465795  7239 net.cpp:84] Creating Layer BatchNorm7
I0129 22:47:03.465800  7239 net.cpp:406] BatchNorm7 <- Convolution7
I0129 22:47:03.465803  7239 net.cpp:367] BatchNorm7 -> Convolution7 (in-place)
I0129 22:47:03.465950  7239 net.cpp:122] Setting up BatchNorm7
I0129 22:47:03.465956  7239 net.cpp:129] Top shape: 32 160 32 32 (5242880)
I0129 22:47:03.465958  7239 net.cpp:137] Memory required for data: 713425024
I0129 22:47:03.465965  7239 layer_factory.hpp:77] Creating layer Scale7
I0129 22:47:03.465972  7239 net.cpp:84] Creating Layer Scale7
I0129 22:47:03.465976  7239 net.cpp:406] Scale7 <- Convolution7
I0129 22:47:03.465981  7239 net.cpp:367] Scale7 -> Convolution7 (in-place)
I0129 22:47:03.466011  7239 layer_factory.hpp:77] Creating layer Scale7
I0129 22:47:03.466091  7239 net.cpp:122] Setting up Scale7
I0129 22:47:03.466097  7239 net.cpp:129] Top shape: 32 160 32 32 (5242880)
I0129 22:47:03.466099  7239 net.cpp:137] Memory required for data: 734396544
I0129 22:47:03.466104  7239 layer_factory.hpp:77] Creating layer Eltwise3
I0129 22:47:03.466109  7239 net.cpp:84] Creating Layer Eltwise3
I0129 22:47:03.466111  7239 net.cpp:406] Eltwise3 <- Eltwise2_ReLU5_0_split_1
I0129 22:47:03.466115  7239 net.cpp:406] Eltwise3 <- Convolution7
I0129 22:47:03.466118  7239 net.cpp:380] Eltwise3 -> Eltwise3
I0129 22:47:03.466137  7239 net.cpp:122] Setting up Eltwise3
I0129 22:47:03.466143  7239 net.cpp:129] Top shape: 32 160 32 32 (5242880)
I0129 22:47:03.466146  7239 net.cpp:137] Memory required for data: 755368064
I0129 22:47:03.466150  7239 layer_factory.hpp:77] Creating layer ReLU7
I0129 22:47:03.466152  7239 net.cpp:84] Creating Layer ReLU7
I0129 22:47:03.466156  7239 net.cpp:406] ReLU7 <- Eltwise3
I0129 22:47:03.466158  7239 net.cpp:367] ReLU7 -> Eltwise3 (in-place)
I0129 22:47:03.466295  7239 net.cpp:122] Setting up ReLU7
I0129 22:47:03.466301  7239 net.cpp:129] Top shape: 32 160 32 32 (5242880)
I0129 22:47:03.466303  7239 net.cpp:137] Memory required for data: 776339584
I0129 22:47:03.466306  7239 layer_factory.hpp:77] Creating layer Eltwise3_ReLU7_0_split
I0129 22:47:03.466310  7239 net.cpp:84] Creating Layer Eltwise3_ReLU7_0_split
I0129 22:47:03.466312  7239 net.cpp:406] Eltwise3_ReLU7_0_split <- Eltwise3
I0129 22:47:03.466318  7239 net.cpp:380] Eltwise3_ReLU7_0_split -> Eltwise3_ReLU7_0_split_0
I0129 22:47:03.466325  7239 net.cpp:380] Eltwise3_ReLU7_0_split -> Eltwise3_ReLU7_0_split_1
I0129 22:47:03.466354  7239 net.cpp:122] Setting up Eltwise3_ReLU7_0_split
I0129 22:47:03.466359  7239 net.cpp:129] Top shape: 32 160 32 32 (5242880)
I0129 22:47:03.466362  7239 net.cpp:129] Top shape: 32 160 32 32 (5242880)
I0129 22:47:03.466364  7239 net.cpp:137] Memory required for data: 818282624
I0129 22:47:03.466367  7239 layer_factory.hpp:77] Creating layer Convolution8
I0129 22:47:03.466374  7239 net.cpp:84] Creating Layer Convolution8
I0129 22:47:03.466377  7239 net.cpp:406] Convolution8 <- Eltwise3_ReLU7_0_split_0
I0129 22:47:03.466383  7239 net.cpp:380] Convolution8 -> Convolution8
I0129 22:47:03.469924  7239 net.cpp:122] Setting up Convolution8
I0129 22:47:03.469936  7239 net.cpp:129] Top shape: 32 160 32 32 (5242880)
I0129 22:47:03.469939  7239 net.cpp:137] Memory required for data: 839254144
I0129 22:47:03.469954  7239 layer_factory.hpp:77] Creating layer BatchNorm8
I0129 22:47:03.469962  7239 net.cpp:84] Creating Layer BatchNorm8
I0129 22:47:03.469965  7239 net.cpp:406] BatchNorm8 <- Convolution8
I0129 22:47:03.469969  7239 net.cpp:367] BatchNorm8 -> Convolution8 (in-place)
I0129 22:47:03.470118  7239 net.cpp:122] Setting up BatchNorm8
I0129 22:47:03.470124  7239 net.cpp:129] Top shape: 32 160 32 32 (5242880)
I0129 22:47:03.470125  7239 net.cpp:137] Memory required for data: 860225664
I0129 22:47:03.470130  7239 layer_factory.hpp:77] Creating layer Scale8
I0129 22:47:03.470137  7239 net.cpp:84] Creating Layer Scale8
I0129 22:47:03.470140  7239 net.cpp:406] Scale8 <- Convolution8
I0129 22:47:03.470144  7239 net.cpp:367] Scale8 -> Convolution8 (in-place)
I0129 22:47:03.470172  7239 layer_factory.hpp:77] Creating layer Scale8
I0129 22:47:03.470252  7239 net.cpp:122] Setting up Scale8
I0129 22:47:03.470258  7239 net.cpp:129] Top shape: 32 160 32 32 (5242880)
I0129 22:47:03.470260  7239 net.cpp:137] Memory required for data: 881197184
I0129 22:47:03.470264  7239 layer_factory.hpp:77] Creating layer ReLU8
I0129 22:47:03.470270  7239 net.cpp:84] Creating Layer ReLU8
I0129 22:47:03.470273  7239 net.cpp:406] ReLU8 <- Convolution8
I0129 22:47:03.470276  7239 net.cpp:367] ReLU8 -> Convolution8 (in-place)
I0129 22:47:03.470417  7239 net.cpp:122] Setting up ReLU8
I0129 22:47:03.470424  7239 net.cpp:129] Top shape: 32 160 32 32 (5242880)
I0129 22:47:03.470427  7239 net.cpp:137] Memory required for data: 902168704
I0129 22:47:03.470429  7239 layer_factory.hpp:77] Creating layer Convolution9
I0129 22:47:03.470437  7239 net.cpp:84] Creating Layer Convolution9
I0129 22:47:03.470440  7239 net.cpp:406] Convolution9 <- Convolution8
I0129 22:47:03.470451  7239 net.cpp:380] Convolution9 -> Convolution9
I0129 22:47:03.473338  7239 net.cpp:122] Setting up Convolution9
I0129 22:47:03.473352  7239 net.cpp:129] Top shape: 32 160 32 32 (5242880)
I0129 22:47:03.473356  7239 net.cpp:137] Memory required for data: 923140224
I0129 22:47:03.473361  7239 layer_factory.hpp:77] Creating layer BatchNorm9
I0129 22:47:03.473367  7239 net.cpp:84] Creating Layer BatchNorm9
I0129 22:47:03.473371  7239 net.cpp:406] BatchNorm9 <- Convolution9
I0129 22:47:03.473376  7239 net.cpp:367] BatchNorm9 -> Convolution9 (in-place)
I0129 22:47:03.473525  7239 net.cpp:122] Setting up BatchNorm9
I0129 22:47:03.473531  7239 net.cpp:129] Top shape: 32 160 32 32 (5242880)
I0129 22:47:03.473532  7239 net.cpp:137] Memory required for data: 944111744
I0129 22:47:03.473538  7239 layer_factory.hpp:77] Creating layer Scale9
I0129 22:47:03.473544  7239 net.cpp:84] Creating Layer Scale9
I0129 22:47:03.473547  7239 net.cpp:406] Scale9 <- Convolution9
I0129 22:47:03.473551  7239 net.cpp:367] Scale9 -> Convolution9 (in-place)
I0129 22:47:03.473579  7239 layer_factory.hpp:77] Creating layer Scale9
I0129 22:47:03.473659  7239 net.cpp:122] Setting up Scale9
I0129 22:47:03.473664  7239 net.cpp:129] Top shape: 32 160 32 32 (5242880)
I0129 22:47:03.473666  7239 net.cpp:137] Memory required for data: 965083264
I0129 22:47:03.473671  7239 layer_factory.hpp:77] Creating layer Eltwise4
I0129 22:47:03.473677  7239 net.cpp:84] Creating Layer Eltwise4
I0129 22:47:03.473680  7239 net.cpp:406] Eltwise4 <- Eltwise3_ReLU7_0_split_1
I0129 22:47:03.473683  7239 net.cpp:406] Eltwise4 <- Convolution9
I0129 22:47:03.473688  7239 net.cpp:380] Eltwise4 -> Eltwise4
I0129 22:47:03.473706  7239 net.cpp:122] Setting up Eltwise4
I0129 22:47:03.473711  7239 net.cpp:129] Top shape: 32 160 32 32 (5242880)
I0129 22:47:03.473712  7239 net.cpp:137] Memory required for data: 986054784
I0129 22:47:03.473716  7239 layer_factory.hpp:77] Creating layer ReLU9
I0129 22:47:03.473718  7239 net.cpp:84] Creating Layer ReLU9
I0129 22:47:03.473721  7239 net.cpp:406] ReLU9 <- Eltwise4
I0129 22:47:03.473726  7239 net.cpp:367] ReLU9 -> Eltwise4 (in-place)
I0129 22:47:03.473862  7239 net.cpp:122] Setting up ReLU9
I0129 22:47:03.473870  7239 net.cpp:129] Top shape: 32 160 32 32 (5242880)
I0129 22:47:03.473881  7239 net.cpp:137] Memory required for data: 1007026304
I0129 22:47:03.473884  7239 layer_factory.hpp:77] Creating layer Eltwise4_ReLU9_0_split
I0129 22:47:03.473891  7239 net.cpp:84] Creating Layer Eltwise4_ReLU9_0_split
I0129 22:47:03.473893  7239 net.cpp:406] Eltwise4_ReLU9_0_split <- Eltwise4
I0129 22:47:03.473897  7239 net.cpp:380] Eltwise4_ReLU9_0_split -> Eltwise4_ReLU9_0_split_0
I0129 22:47:03.473901  7239 net.cpp:380] Eltwise4_ReLU9_0_split -> Eltwise4_ReLU9_0_split_1
I0129 22:47:03.473934  7239 net.cpp:122] Setting up Eltwise4_ReLU9_0_split
I0129 22:47:03.473939  7239 net.cpp:129] Top shape: 32 160 32 32 (5242880)
I0129 22:47:03.473942  7239 net.cpp:129] Top shape: 32 160 32 32 (5242880)
I0129 22:47:03.473944  7239 net.cpp:137] Memory required for data: 1048969344
I0129 22:47:03.473947  7239 layer_factory.hpp:77] Creating layer Convolution10
I0129 22:47:03.473955  7239 net.cpp:84] Creating Layer Convolution10
I0129 22:47:03.473958  7239 net.cpp:406] Convolution10 <- Eltwise4_ReLU9_0_split_0
I0129 22:47:03.473964  7239 net.cpp:380] Convolution10 -> Convolution10
I0129 22:47:03.477537  7239 net.cpp:122] Setting up Convolution10
I0129 22:47:03.477550  7239 net.cpp:129] Top shape: 32 160 32 32 (5242880)
I0129 22:47:03.477552  7239 net.cpp:137] Memory required for data: 1069940864
I0129 22:47:03.477567  7239 layer_factory.hpp:77] Creating layer BatchNorm10
I0129 22:47:03.477576  7239 net.cpp:84] Creating Layer BatchNorm10
I0129 22:47:03.477578  7239 net.cpp:406] BatchNorm10 <- Convolution10
I0129 22:47:03.477582  7239 net.cpp:367] BatchNorm10 -> Convolution10 (in-place)
I0129 22:47:03.477733  7239 net.cpp:122] Setting up BatchNorm10
I0129 22:47:03.477741  7239 net.cpp:129] Top shape: 32 160 32 32 (5242880)
I0129 22:47:03.477742  7239 net.cpp:137] Memory required for data: 1090912384
I0129 22:47:03.477748  7239 layer_factory.hpp:77] Creating layer Scale10
I0129 22:47:03.477752  7239 net.cpp:84] Creating Layer Scale10
I0129 22:47:03.477756  7239 net.cpp:406] Scale10 <- Convolution10
I0129 22:47:03.477761  7239 net.cpp:367] Scale10 -> Convolution10 (in-place)
I0129 22:47:03.477788  7239 layer_factory.hpp:77] Creating layer Scale10
I0129 22:47:03.477869  7239 net.cpp:122] Setting up Scale10
I0129 22:47:03.477876  7239 net.cpp:129] Top shape: 32 160 32 32 (5242880)
I0129 22:47:03.477880  7239 net.cpp:137] Memory required for data: 1111883904
I0129 22:47:03.477883  7239 layer_factory.hpp:77] Creating layer ReLU10
I0129 22:47:03.477887  7239 net.cpp:84] Creating Layer ReLU10
I0129 22:47:03.477890  7239 net.cpp:406] ReLU10 <- Convolution10
I0129 22:47:03.477895  7239 net.cpp:367] ReLU10 -> Convolution10 (in-place)
I0129 22:47:03.478032  7239 net.cpp:122] Setting up ReLU10
I0129 22:47:03.478039  7239 net.cpp:129] Top shape: 32 160 32 32 (5242880)
I0129 22:47:03.478041  7239 net.cpp:137] Memory required for data: 1132855424
I0129 22:47:03.478044  7239 layer_factory.hpp:77] Creating layer Convolution11
I0129 22:47:03.478052  7239 net.cpp:84] Creating Layer Convolution11
I0129 22:47:03.478055  7239 net.cpp:406] Convolution11 <- Convolution10
I0129 22:47:03.478060  7239 net.cpp:380] Convolution11 -> Convolution11
I0129 22:47:03.480896  7239 net.cpp:122] Setting up Convolution11
I0129 22:47:03.480908  7239 net.cpp:129] Top shape: 32 160 32 32 (5242880)
I0129 22:47:03.480912  7239 net.cpp:137] Memory required for data: 1153826944
I0129 22:47:03.480917  7239 layer_factory.hpp:77] Creating layer BatchNorm11
I0129 22:47:03.480923  7239 net.cpp:84] Creating Layer BatchNorm11
I0129 22:47:03.480927  7239 net.cpp:406] BatchNorm11 <- Convolution11
I0129 22:47:03.480931  7239 net.cpp:367] BatchNorm11 -> Convolution11 (in-place)
I0129 22:47:03.481086  7239 net.cpp:122] Setting up BatchNorm11
I0129 22:47:03.481092  7239 net.cpp:129] Top shape: 32 160 32 32 (5242880)
I0129 22:47:03.481094  7239 net.cpp:137] Memory required for data: 1174798464
I0129 22:47:03.481099  7239 layer_factory.hpp:77] Creating layer Scale11
I0129 22:47:03.481107  7239 net.cpp:84] Creating Layer Scale11
I0129 22:47:03.481111  7239 net.cpp:406] Scale11 <- Convolution11
I0129 22:47:03.481123  7239 net.cpp:367] Scale11 -> Convolution11 (in-place)
I0129 22:47:03.481154  7239 layer_factory.hpp:77] Creating layer Scale11
I0129 22:47:03.481238  7239 net.cpp:122] Setting up Scale11
I0129 22:47:03.481245  7239 net.cpp:129] Top shape: 32 160 32 32 (5242880)
I0129 22:47:03.481246  7239 net.cpp:137] Memory required for data: 1195769984
I0129 22:47:03.481251  7239 layer_factory.hpp:77] Creating layer Eltwise5
I0129 22:47:03.481256  7239 net.cpp:84] Creating Layer Eltwise5
I0129 22:47:03.481258  7239 net.cpp:406] Eltwise5 <- Eltwise4_ReLU9_0_split_1
I0129 22:47:03.481261  7239 net.cpp:406] Eltwise5 <- Convolution11
I0129 22:47:03.481266  7239 net.cpp:380] Eltwise5 -> Eltwise5
I0129 22:47:03.481286  7239 net.cpp:122] Setting up Eltwise5
I0129 22:47:03.481289  7239 net.cpp:129] Top shape: 32 160 32 32 (5242880)
I0129 22:47:03.481292  7239 net.cpp:137] Memory required for data: 1216741504
I0129 22:47:03.481294  7239 layer_factory.hpp:77] Creating layer ReLU11
I0129 22:47:03.481298  7239 net.cpp:84] Creating Layer ReLU11
I0129 22:47:03.481300  7239 net.cpp:406] ReLU11 <- Eltwise5
I0129 22:47:03.481303  7239 net.cpp:367] ReLU11 -> Eltwise5 (in-place)
I0129 22:47:03.481729  7239 net.cpp:122] Setting up ReLU11
I0129 22:47:03.481740  7239 net.cpp:129] Top shape: 32 160 32 32 (5242880)
I0129 22:47:03.481745  7239 net.cpp:137] Memory required for data: 1237713024
I0129 22:47:03.481746  7239 layer_factory.hpp:77] Creating layer Eltwise5_ReLU11_0_split
I0129 22:47:03.481751  7239 net.cpp:84] Creating Layer Eltwise5_ReLU11_0_split
I0129 22:47:03.481755  7239 net.cpp:406] Eltwise5_ReLU11_0_split <- Eltwise5
I0129 22:47:03.481758  7239 net.cpp:380] Eltwise5_ReLU11_0_split -> Eltwise5_ReLU11_0_split_0
I0129 22:47:03.481765  7239 net.cpp:380] Eltwise5_ReLU11_0_split -> Eltwise5_ReLU11_0_split_1
I0129 22:47:03.481799  7239 net.cpp:122] Setting up Eltwise5_ReLU11_0_split
I0129 22:47:03.481806  7239 net.cpp:129] Top shape: 32 160 32 32 (5242880)
I0129 22:47:03.481808  7239 net.cpp:129] Top shape: 32 160 32 32 (5242880)
I0129 22:47:03.481811  7239 net.cpp:137] Memory required for data: 1279656064
I0129 22:47:03.481812  7239 layer_factory.hpp:77] Creating layer Convolution12
I0129 22:47:03.481822  7239 net.cpp:84] Creating Layer Convolution12
I0129 22:47:03.481824  7239 net.cpp:406] Convolution12 <- Eltwise5_ReLU11_0_split_0
I0129 22:47:03.481829  7239 net.cpp:380] Convolution12 -> Convolution12
I0129 22:47:03.483801  7239 net.cpp:122] Setting up Convolution12
I0129 22:47:03.483814  7239 net.cpp:129] Top shape: 32 320 16 16 (2621440)
I0129 22:47:03.483817  7239 net.cpp:137] Memory required for data: 1290141824
I0129 22:47:03.483822  7239 layer_factory.hpp:77] Creating layer BatchNorm12
I0129 22:47:03.483829  7239 net.cpp:84] Creating Layer BatchNorm12
I0129 22:47:03.483832  7239 net.cpp:406] BatchNorm12 <- Convolution12
I0129 22:47:03.483839  7239 net.cpp:367] BatchNorm12 -> Convolution12 (in-place)
I0129 22:47:03.483994  7239 net.cpp:122] Setting up BatchNorm12
I0129 22:47:03.484000  7239 net.cpp:129] Top shape: 32 320 16 16 (2621440)
I0129 22:47:03.484004  7239 net.cpp:137] Memory required for data: 1300627584
I0129 22:47:03.484009  7239 layer_factory.hpp:77] Creating layer Scale12
I0129 22:47:03.484014  7239 net.cpp:84] Creating Layer Scale12
I0129 22:47:03.484017  7239 net.cpp:406] Scale12 <- Convolution12
I0129 22:47:03.484021  7239 net.cpp:367] Scale12 -> Convolution12 (in-place)
I0129 22:47:03.484053  7239 layer_factory.hpp:77] Creating layer Scale12
I0129 22:47:03.484138  7239 net.cpp:122] Setting up Scale12
I0129 22:47:03.484144  7239 net.cpp:129] Top shape: 32 320 16 16 (2621440)
I0129 22:47:03.484146  7239 net.cpp:137] Memory required for data: 1311113344
I0129 22:47:03.484150  7239 layer_factory.hpp:77] Creating layer Convolution13
I0129 22:47:03.484160  7239 net.cpp:84] Creating Layer Convolution13
I0129 22:47:03.484163  7239 net.cpp:406] Convolution13 <- Eltwise5_ReLU11_0_split_1
I0129 22:47:03.484169  7239 net.cpp:380] Convolution13 -> Convolution13
I0129 22:47:03.489071  7239 net.cpp:122] Setting up Convolution13
I0129 22:47:03.489094  7239 net.cpp:129] Top shape: 32 320 16 16 (2621440)
I0129 22:47:03.489096  7239 net.cpp:137] Memory required for data: 1321599104
I0129 22:47:03.489102  7239 layer_factory.hpp:77] Creating layer BatchNorm13
I0129 22:47:03.489109  7239 net.cpp:84] Creating Layer BatchNorm13
I0129 22:47:03.489114  7239 net.cpp:406] BatchNorm13 <- Convolution13
I0129 22:47:03.489118  7239 net.cpp:367] BatchNorm13 -> Convolution13 (in-place)
I0129 22:47:03.489270  7239 net.cpp:122] Setting up BatchNorm13
I0129 22:47:03.489276  7239 net.cpp:129] Top shape: 32 320 16 16 (2621440)
I0129 22:47:03.489279  7239 net.cpp:137] Memory required for data: 1332084864
I0129 22:47:03.489284  7239 layer_factory.hpp:77] Creating layer Scale13
I0129 22:47:03.489290  7239 net.cpp:84] Creating Layer Scale13
I0129 22:47:03.489293  7239 net.cpp:406] Scale13 <- Convolution13
I0129 22:47:03.489296  7239 net.cpp:367] Scale13 -> Convolution13 (in-place)
I0129 22:47:03.489328  7239 layer_factory.hpp:77] Creating layer Scale13
I0129 22:47:03.489418  7239 net.cpp:122] Setting up Scale13
I0129 22:47:03.489423  7239 net.cpp:129] Top shape: 32 320 16 16 (2621440)
I0129 22:47:03.489425  7239 net.cpp:137] Memory required for data: 1342570624
I0129 22:47:03.489429  7239 layer_factory.hpp:77] Creating layer ReLU12
I0129 22:47:03.489436  7239 net.cpp:84] Creating Layer ReLU12
I0129 22:47:03.489439  7239 net.cpp:406] ReLU12 <- Convolution13
I0129 22:47:03.489442  7239 net.cpp:367] ReLU12 -> Convolution13 (in-place)
I0129 22:47:03.489867  7239 net.cpp:122] Setting up ReLU12
I0129 22:47:03.489878  7239 net.cpp:129] Top shape: 32 320 16 16 (2621440)
I0129 22:47:03.489882  7239 net.cpp:137] Memory required for data: 1353056384
I0129 22:47:03.489884  7239 layer_factory.hpp:77] Creating layer Convolution14
I0129 22:47:03.489892  7239 net.cpp:84] Creating Layer Convolution14
I0129 22:47:03.489898  7239 net.cpp:406] Convolution14 <- Convolution13
I0129 22:47:03.489903  7239 net.cpp:380] Convolution14 -> Convolution14
I0129 22:47:03.498764  7239 net.cpp:122] Setting up Convolution14
I0129 22:47:03.498776  7239 net.cpp:129] Top shape: 32 320 16 16 (2621440)
I0129 22:47:03.498780  7239 net.cpp:137] Memory required for data: 1363542144
I0129 22:47:03.498785  7239 layer_factory.hpp:77] Creating layer BatchNorm14
I0129 22:47:03.498800  7239 net.cpp:84] Creating Layer BatchNorm14
I0129 22:47:03.498803  7239 net.cpp:406] BatchNorm14 <- Convolution14
I0129 22:47:03.498808  7239 net.cpp:367] BatchNorm14 -> Convolution14 (in-place)
I0129 22:47:03.498965  7239 net.cpp:122] Setting up BatchNorm14
I0129 22:47:03.498970  7239 net.cpp:129] Top shape: 32 320 16 16 (2621440)
I0129 22:47:03.498972  7239 net.cpp:137] Memory required for data: 1374027904
I0129 22:47:03.498978  7239 layer_factory.hpp:77] Creating layer Scale14
I0129 22:47:03.498984  7239 net.cpp:84] Creating Layer Scale14
I0129 22:47:03.498988  7239 net.cpp:406] Scale14 <- Convolution14
I0129 22:47:03.498991  7239 net.cpp:367] Scale14 -> Convolution14 (in-place)
I0129 22:47:03.499024  7239 layer_factory.hpp:77] Creating layer Scale14
I0129 22:47:03.499112  7239 net.cpp:122] Setting up Scale14
I0129 22:47:03.499119  7239 net.cpp:129] Top shape: 32 320 16 16 (2621440)
I0129 22:47:03.499122  7239 net.cpp:137] Memory required for data: 1384513664
I0129 22:47:03.499127  7239 layer_factory.hpp:77] Creating layer Eltwise6
I0129 22:47:03.499131  7239 net.cpp:84] Creating Layer Eltwise6
I0129 22:47:03.499133  7239 net.cpp:406] Eltwise6 <- Convolution12
I0129 22:47:03.499136  7239 net.cpp:406] Eltwise6 <- Convolution14
I0129 22:47:03.499140  7239 net.cpp:380] Eltwise6 -> Eltwise6
I0129 22:47:03.499156  7239 net.cpp:122] Setting up Eltwise6
I0129 22:47:03.499161  7239 net.cpp:129] Top shape: 32 320 16 16 (2621440)
I0129 22:47:03.499163  7239 net.cpp:137] Memory required for data: 1394999424
I0129 22:47:03.499166  7239 layer_factory.hpp:77] Creating layer ReLU13
I0129 22:47:03.499169  7239 net.cpp:84] Creating Layer ReLU13
I0129 22:47:03.499172  7239 net.cpp:406] ReLU13 <- Eltwise6
I0129 22:47:03.499187  7239 net.cpp:367] ReLU13 -> Eltwise6 (in-place)
I0129 22:47:03.499332  7239 net.cpp:122] Setting up ReLU13
I0129 22:47:03.499339  7239 net.cpp:129] Top shape: 32 320 16 16 (2621440)
I0129 22:47:03.499341  7239 net.cpp:137] Memory required for data: 1405485184
I0129 22:47:03.499344  7239 layer_factory.hpp:77] Creating layer Eltwise6_ReLU13_0_split
I0129 22:47:03.499349  7239 net.cpp:84] Creating Layer Eltwise6_ReLU13_0_split
I0129 22:47:03.499351  7239 net.cpp:406] Eltwise6_ReLU13_0_split <- Eltwise6
I0129 22:47:03.499356  7239 net.cpp:380] Eltwise6_ReLU13_0_split -> Eltwise6_ReLU13_0_split_0
I0129 22:47:03.499362  7239 net.cpp:380] Eltwise6_ReLU13_0_split -> Eltwise6_ReLU13_0_split_1
I0129 22:47:03.499395  7239 net.cpp:122] Setting up Eltwise6_ReLU13_0_split
I0129 22:47:03.499400  7239 net.cpp:129] Top shape: 32 320 16 16 (2621440)
I0129 22:47:03.499403  7239 net.cpp:129] Top shape: 32 320 16 16 (2621440)
I0129 22:47:03.499405  7239 net.cpp:137] Memory required for data: 1426456704
I0129 22:47:03.499408  7239 layer_factory.hpp:77] Creating layer Convolution15
I0129 22:47:03.499416  7239 net.cpp:84] Creating Layer Convolution15
I0129 22:47:03.499419  7239 net.cpp:406] Convolution15 <- Eltwise6_ReLU13_0_split_0
I0129 22:47:03.499424  7239 net.cpp:380] Convolution15 -> Convolution15
I0129 22:47:03.508317  7239 net.cpp:122] Setting up Convolution15
I0129 22:47:03.508329  7239 net.cpp:129] Top shape: 32 320 16 16 (2621440)
I0129 22:47:03.508332  7239 net.cpp:137] Memory required for data: 1436942464
I0129 22:47:03.508337  7239 layer_factory.hpp:77] Creating layer BatchNorm15
I0129 22:47:03.508344  7239 net.cpp:84] Creating Layer BatchNorm15
I0129 22:47:03.508347  7239 net.cpp:406] BatchNorm15 <- Convolution15
I0129 22:47:03.508353  7239 net.cpp:367] BatchNorm15 -> Convolution15 (in-place)
I0129 22:47:03.508512  7239 net.cpp:122] Setting up BatchNorm15
I0129 22:47:03.508518  7239 net.cpp:129] Top shape: 32 320 16 16 (2621440)
I0129 22:47:03.508520  7239 net.cpp:137] Memory required for data: 1447428224
I0129 22:47:03.508525  7239 layer_factory.hpp:77] Creating layer Scale15
I0129 22:47:03.508530  7239 net.cpp:84] Creating Layer Scale15
I0129 22:47:03.508533  7239 net.cpp:406] Scale15 <- Convolution15
I0129 22:47:03.508538  7239 net.cpp:367] Scale15 -> Convolution15 (in-place)
I0129 22:47:03.508569  7239 layer_factory.hpp:77] Creating layer Scale15
I0129 22:47:03.508657  7239 net.cpp:122] Setting up Scale15
I0129 22:47:03.508663  7239 net.cpp:129] Top shape: 32 320 16 16 (2621440)
I0129 22:47:03.508666  7239 net.cpp:137] Memory required for data: 1457913984
I0129 22:47:03.508669  7239 layer_factory.hpp:77] Creating layer ReLU14
I0129 22:47:03.508673  7239 net.cpp:84] Creating Layer ReLU14
I0129 22:47:03.508677  7239 net.cpp:406] ReLU14 <- Convolution15
I0129 22:47:03.508682  7239 net.cpp:367] ReLU14 -> Convolution15 (in-place)
I0129 22:47:03.508827  7239 net.cpp:122] Setting up ReLU14
I0129 22:47:03.508834  7239 net.cpp:129] Top shape: 32 320 16 16 (2621440)
I0129 22:47:03.508838  7239 net.cpp:137] Memory required for data: 1468399744
I0129 22:47:03.508841  7239 layer_factory.hpp:77] Creating layer Convolution16
I0129 22:47:03.508849  7239 net.cpp:84] Creating Layer Convolution16
I0129 22:47:03.508852  7239 net.cpp:406] Convolution16 <- Convolution15
I0129 22:47:03.508857  7239 net.cpp:380] Convolution16 -> Convolution16
I0129 22:47:03.517838  7239 net.cpp:122] Setting up Convolution16
I0129 22:47:03.517851  7239 net.cpp:129] Top shape: 32 320 16 16 (2621440)
I0129 22:47:03.517855  7239 net.cpp:137] Memory required for data: 1478885504
I0129 22:47:03.517861  7239 layer_factory.hpp:77] Creating layer BatchNorm16
I0129 22:47:03.517868  7239 net.cpp:84] Creating Layer BatchNorm16
I0129 22:47:03.517871  7239 net.cpp:406] BatchNorm16 <- Convolution16
I0129 22:47:03.517876  7239 net.cpp:367] BatchNorm16 -> Convolution16 (in-place)
I0129 22:47:03.518038  7239 net.cpp:122] Setting up BatchNorm16
I0129 22:47:03.518044  7239 net.cpp:129] Top shape: 32 320 16 16 (2621440)
I0129 22:47:03.518048  7239 net.cpp:137] Memory required for data: 1489371264
I0129 22:47:03.518062  7239 layer_factory.hpp:77] Creating layer Scale16
I0129 22:47:03.518069  7239 net.cpp:84] Creating Layer Scale16
I0129 22:47:03.518071  7239 net.cpp:406] Scale16 <- Convolution16
I0129 22:47:03.518075  7239 net.cpp:367] Scale16 -> Convolution16 (in-place)
I0129 22:47:03.518112  7239 layer_factory.hpp:77] Creating layer Scale16
I0129 22:47:03.518203  7239 net.cpp:122] Setting up Scale16
I0129 22:47:03.518208  7239 net.cpp:129] Top shape: 32 320 16 16 (2621440)
I0129 22:47:03.518210  7239 net.cpp:137] Memory required for data: 1499857024
I0129 22:47:03.518214  7239 layer_factory.hpp:77] Creating layer Eltwise7
I0129 22:47:03.518221  7239 net.cpp:84] Creating Layer Eltwise7
I0129 22:47:03.518225  7239 net.cpp:406] Eltwise7 <- Eltwise6_ReLU13_0_split_1
I0129 22:47:03.518229  7239 net.cpp:406] Eltwise7 <- Convolution16
I0129 22:47:03.518231  7239 net.cpp:380] Eltwise7 -> Eltwise7
I0129 22:47:03.518249  7239 net.cpp:122] Setting up Eltwise7
I0129 22:47:03.518254  7239 net.cpp:129] Top shape: 32 320 16 16 (2621440)
I0129 22:47:03.518255  7239 net.cpp:137] Memory required for data: 1510342784
I0129 22:47:03.518257  7239 layer_factory.hpp:77] Creating layer ReLU15
I0129 22:47:03.518262  7239 net.cpp:84] Creating Layer ReLU15
I0129 22:47:03.518265  7239 net.cpp:406] ReLU15 <- Eltwise7
I0129 22:47:03.518268  7239 net.cpp:367] ReLU15 -> Eltwise7 (in-place)
I0129 22:47:03.518702  7239 net.cpp:122] Setting up ReLU15
I0129 22:47:03.518713  7239 net.cpp:129] Top shape: 32 320 16 16 (2621440)
I0129 22:47:03.518718  7239 net.cpp:137] Memory required for data: 1520828544
I0129 22:47:03.518723  7239 layer_factory.hpp:77] Creating layer Eltwise7_ReLU15_0_split
I0129 22:47:03.518729  7239 net.cpp:84] Creating Layer Eltwise7_ReLU15_0_split
I0129 22:47:03.518733  7239 net.cpp:406] Eltwise7_ReLU15_0_split <- Eltwise7
I0129 22:47:03.518738  7239 net.cpp:380] Eltwise7_ReLU15_0_split -> Eltwise7_ReLU15_0_split_0
I0129 22:47:03.518744  7239 net.cpp:380] Eltwise7_ReLU15_0_split -> Eltwise7_ReLU15_0_split_1
I0129 22:47:03.518781  7239 net.cpp:122] Setting up Eltwise7_ReLU15_0_split
I0129 22:47:03.518787  7239 net.cpp:129] Top shape: 32 320 16 16 (2621440)
I0129 22:47:03.518790  7239 net.cpp:129] Top shape: 32 320 16 16 (2621440)
I0129 22:47:03.518792  7239 net.cpp:137] Memory required for data: 1541800064
I0129 22:47:03.518795  7239 layer_factory.hpp:77] Creating layer Convolution17
I0129 22:47:03.518803  7239 net.cpp:84] Creating Layer Convolution17
I0129 22:47:03.518806  7239 net.cpp:406] Convolution17 <- Eltwise7_ReLU15_0_split_0
I0129 22:47:03.518811  7239 net.cpp:380] Convolution17 -> Convolution17
I0129 22:47:03.527667  7239 net.cpp:122] Setting up Convolution17
I0129 22:47:03.527679  7239 net.cpp:129] Top shape: 32 320 16 16 (2621440)
I0129 22:47:03.527683  7239 net.cpp:137] Memory required for data: 1552285824
I0129 22:47:03.527688  7239 layer_factory.hpp:77] Creating layer BatchNorm17
I0129 22:47:03.527694  7239 net.cpp:84] Creating Layer BatchNorm17
I0129 22:47:03.527699  7239 net.cpp:406] BatchNorm17 <- Convolution17
I0129 22:47:03.527704  7239 net.cpp:367] BatchNorm17 -> Convolution17 (in-place)
I0129 22:47:03.527863  7239 net.cpp:122] Setting up BatchNorm17
I0129 22:47:03.527868  7239 net.cpp:129] Top shape: 32 320 16 16 (2621440)
I0129 22:47:03.527871  7239 net.cpp:137] Memory required for data: 1562771584
I0129 22:47:03.527876  7239 layer_factory.hpp:77] Creating layer Scale17
I0129 22:47:03.527884  7239 net.cpp:84] Creating Layer Scale17
I0129 22:47:03.527886  7239 net.cpp:406] Scale17 <- Convolution17
I0129 22:47:03.527890  7239 net.cpp:367] Scale17 -> Convolution17 (in-place)
I0129 22:47:03.527925  7239 layer_factory.hpp:77] Creating layer Scale17
I0129 22:47:03.528015  7239 net.cpp:122] Setting up Scale17
I0129 22:47:03.528020  7239 net.cpp:129] Top shape: 32 320 16 16 (2621440)
I0129 22:47:03.528023  7239 net.cpp:137] Memory required for data: 1573257344
I0129 22:47:03.528028  7239 layer_factory.hpp:77] Creating layer ReLU16
I0129 22:47:03.528033  7239 net.cpp:84] Creating Layer ReLU16
I0129 22:47:03.528044  7239 net.cpp:406] ReLU16 <- Convolution17
I0129 22:47:03.528049  7239 net.cpp:367] ReLU16 -> Convolution17 (in-place)
I0129 22:47:03.528188  7239 net.cpp:122] Setting up ReLU16
I0129 22:47:03.528197  7239 net.cpp:129] Top shape: 32 320 16 16 (2621440)
I0129 22:47:03.528198  7239 net.cpp:137] Memory required for data: 1583743104
I0129 22:47:03.528201  7239 layer_factory.hpp:77] Creating layer Convolution18
I0129 22:47:03.528208  7239 net.cpp:84] Creating Layer Convolution18
I0129 22:47:03.528213  7239 net.cpp:406] Convolution18 <- Convolution17
I0129 22:47:03.528218  7239 net.cpp:380] Convolution18 -> Convolution18
I0129 22:47:03.537065  7239 net.cpp:122] Setting up Convolution18
I0129 22:47:03.537077  7239 net.cpp:129] Top shape: 32 320 16 16 (2621440)
I0129 22:47:03.537081  7239 net.cpp:137] Memory required for data: 1594228864
I0129 22:47:03.537087  7239 layer_factory.hpp:77] Creating layer BatchNorm18
I0129 22:47:03.537093  7239 net.cpp:84] Creating Layer BatchNorm18
I0129 22:47:03.537097  7239 net.cpp:406] BatchNorm18 <- Convolution18
I0129 22:47:03.537102  7239 net.cpp:367] BatchNorm18 -> Convolution18 (in-place)
I0129 22:47:03.537263  7239 net.cpp:122] Setting up BatchNorm18
I0129 22:47:03.537269  7239 net.cpp:129] Top shape: 32 320 16 16 (2621440)
I0129 22:47:03.537272  7239 net.cpp:137] Memory required for data: 1604714624
I0129 22:47:03.537277  7239 layer_factory.hpp:77] Creating layer Scale18
I0129 22:47:03.537283  7239 net.cpp:84] Creating Layer Scale18
I0129 22:47:03.537287  7239 net.cpp:406] Scale18 <- Convolution18
I0129 22:47:03.537291  7239 net.cpp:367] Scale18 -> Convolution18 (in-place)
I0129 22:47:03.537324  7239 layer_factory.hpp:77] Creating layer Scale18
I0129 22:47:03.537413  7239 net.cpp:122] Setting up Scale18
I0129 22:47:03.537420  7239 net.cpp:129] Top shape: 32 320 16 16 (2621440)
I0129 22:47:03.537421  7239 net.cpp:137] Memory required for data: 1615200384
I0129 22:47:03.537425  7239 layer_factory.hpp:77] Creating layer Eltwise8
I0129 22:47:03.537431  7239 net.cpp:84] Creating Layer Eltwise8
I0129 22:47:03.537436  7239 net.cpp:406] Eltwise8 <- Eltwise7_ReLU15_0_split_1
I0129 22:47:03.537438  7239 net.cpp:406] Eltwise8 <- Convolution18
I0129 22:47:03.537442  7239 net.cpp:380] Eltwise8 -> Eltwise8
I0129 22:47:03.537458  7239 net.cpp:122] Setting up Eltwise8
I0129 22:47:03.537463  7239 net.cpp:129] Top shape: 32 320 16 16 (2621440)
I0129 22:47:03.537466  7239 net.cpp:137] Memory required for data: 1625686144
I0129 22:47:03.537467  7239 layer_factory.hpp:77] Creating layer ReLU17
I0129 22:47:03.537472  7239 net.cpp:84] Creating Layer ReLU17
I0129 22:47:03.537474  7239 net.cpp:406] ReLU17 <- Eltwise8
I0129 22:47:03.537479  7239 net.cpp:367] ReLU17 -> Eltwise8 (in-place)
I0129 22:47:03.537622  7239 net.cpp:122] Setting up ReLU17
I0129 22:47:03.537631  7239 net.cpp:129] Top shape: 32 320 16 16 (2621440)
I0129 22:47:03.537633  7239 net.cpp:137] Memory required for data: 1636171904
I0129 22:47:03.537636  7239 layer_factory.hpp:77] Creating layer Eltwise8_ReLU17_0_split
I0129 22:47:03.537639  7239 net.cpp:84] Creating Layer Eltwise8_ReLU17_0_split
I0129 22:47:03.537642  7239 net.cpp:406] Eltwise8_ReLU17_0_split <- Eltwise8
I0129 22:47:03.537647  7239 net.cpp:380] Eltwise8_ReLU17_0_split -> Eltwise8_ReLU17_0_split_0
I0129 22:47:03.537652  7239 net.cpp:380] Eltwise8_ReLU17_0_split -> Eltwise8_ReLU17_0_split_1
I0129 22:47:03.537686  7239 net.cpp:122] Setting up Eltwise8_ReLU17_0_split
I0129 22:47:03.537691  7239 net.cpp:129] Top shape: 32 320 16 16 (2621440)
I0129 22:47:03.537694  7239 net.cpp:129] Top shape: 32 320 16 16 (2621440)
I0129 22:47:03.537698  7239 net.cpp:137] Memory required for data: 1657143424
I0129 22:47:03.537699  7239 layer_factory.hpp:77] Creating layer Convolution19
I0129 22:47:03.537706  7239 net.cpp:84] Creating Layer Convolution19
I0129 22:47:03.537710  7239 net.cpp:406] Convolution19 <- Eltwise8_ReLU17_0_split_0
I0129 22:47:03.537715  7239 net.cpp:380] Convolution19 -> Convolution19
I0129 22:47:03.546545  7239 net.cpp:122] Setting up Convolution19
I0129 22:47:03.546566  7239 net.cpp:129] Top shape: 32 320 16 16 (2621440)
I0129 22:47:03.546571  7239 net.cpp:137] Memory required for data: 1667629184
I0129 22:47:03.546576  7239 layer_factory.hpp:77] Creating layer BatchNorm19
I0129 22:47:03.546582  7239 net.cpp:84] Creating Layer BatchNorm19
I0129 22:47:03.546586  7239 net.cpp:406] BatchNorm19 <- Convolution19
I0129 22:47:03.546591  7239 net.cpp:367] BatchNorm19 -> Convolution19 (in-place)
I0129 22:47:03.546763  7239 net.cpp:122] Setting up BatchNorm19
I0129 22:47:03.546771  7239 net.cpp:129] Top shape: 32 320 16 16 (2621440)
I0129 22:47:03.546773  7239 net.cpp:137] Memory required for data: 1678114944
I0129 22:47:03.546792  7239 layer_factory.hpp:77] Creating layer Scale19
I0129 22:47:03.546799  7239 net.cpp:84] Creating Layer Scale19
I0129 22:47:03.546802  7239 net.cpp:406] Scale19 <- Convolution19
I0129 22:47:03.546806  7239 net.cpp:367] Scale19 -> Convolution19 (in-place)
I0129 22:47:03.546841  7239 layer_factory.hpp:77] Creating layer Scale19
I0129 22:47:03.546931  7239 net.cpp:122] Setting up Scale19
I0129 22:47:03.546937  7239 net.cpp:129] Top shape: 32 320 16 16 (2621440)
I0129 22:47:03.546939  7239 net.cpp:137] Memory required for data: 1688600704
I0129 22:47:03.546943  7239 layer_factory.hpp:77] Creating layer ReLU18
I0129 22:47:03.546948  7239 net.cpp:84] Creating Layer ReLU18
I0129 22:47:03.546952  7239 net.cpp:406] ReLU18 <- Convolution19
I0129 22:47:03.546955  7239 net.cpp:367] ReLU18 -> Convolution19 (in-place)
I0129 22:47:03.547439  7239 net.cpp:122] Setting up ReLU18
I0129 22:47:03.547451  7239 net.cpp:129] Top shape: 32 320 16 16 (2621440)
I0129 22:47:03.547454  7239 net.cpp:137] Memory required for data: 1699086464
I0129 22:47:03.547456  7239 layer_factory.hpp:77] Creating layer Convolution20
I0129 22:47:03.547466  7239 net.cpp:84] Creating Layer Convolution20
I0129 22:47:03.547469  7239 net.cpp:406] Convolution20 <- Convolution19
I0129 22:47:03.547477  7239 net.cpp:380] Convolution20 -> Convolution20
I0129 22:47:03.556355  7239 net.cpp:122] Setting up Convolution20
I0129 22:47:03.556370  7239 net.cpp:129] Top shape: 32 320 16 16 (2621440)
I0129 22:47:03.556372  7239 net.cpp:137] Memory required for data: 1709572224
I0129 22:47:03.556377  7239 layer_factory.hpp:77] Creating layer BatchNorm20
I0129 22:47:03.556385  7239 net.cpp:84] Creating Layer BatchNorm20
I0129 22:47:03.556390  7239 net.cpp:406] BatchNorm20 <- Convolution20
I0129 22:47:03.556393  7239 net.cpp:367] BatchNorm20 -> Convolution20 (in-place)
I0129 22:47:03.556560  7239 net.cpp:122] Setting up BatchNorm20
I0129 22:47:03.556565  7239 net.cpp:129] Top shape: 32 320 16 16 (2621440)
I0129 22:47:03.556567  7239 net.cpp:137] Memory required for data: 1720057984
I0129 22:47:03.556573  7239 layer_factory.hpp:77] Creating layer Scale20
I0129 22:47:03.556579  7239 net.cpp:84] Creating Layer Scale20
I0129 22:47:03.556582  7239 net.cpp:406] Scale20 <- Convolution20
I0129 22:47:03.556586  7239 net.cpp:367] Scale20 -> Convolution20 (in-place)
I0129 22:47:03.556622  7239 layer_factory.hpp:77] Creating layer Scale20
I0129 22:47:03.556713  7239 net.cpp:122] Setting up Scale20
I0129 22:47:03.556720  7239 net.cpp:129] Top shape: 32 320 16 16 (2621440)
I0129 22:47:03.556721  7239 net.cpp:137] Memory required for data: 1730543744
I0129 22:47:03.556726  7239 layer_factory.hpp:77] Creating layer Eltwise9
I0129 22:47:03.556730  7239 net.cpp:84] Creating Layer Eltwise9
I0129 22:47:03.556735  7239 net.cpp:406] Eltwise9 <- Eltwise8_ReLU17_0_split_1
I0129 22:47:03.556738  7239 net.cpp:406] Eltwise9 <- Convolution20
I0129 22:47:03.556742  7239 net.cpp:380] Eltwise9 -> Eltwise9
I0129 22:47:03.556759  7239 net.cpp:122] Setting up Eltwise9
I0129 22:47:03.556764  7239 net.cpp:129] Top shape: 32 320 16 16 (2621440)
I0129 22:47:03.556766  7239 net.cpp:137] Memory required for data: 1741029504
I0129 22:47:03.556768  7239 layer_factory.hpp:77] Creating layer ReLU19
I0129 22:47:03.556772  7239 net.cpp:84] Creating Layer ReLU19
I0129 22:47:03.556774  7239 net.cpp:406] ReLU19 <- Eltwise9
I0129 22:47:03.556779  7239 net.cpp:367] ReLU19 -> Eltwise9 (in-place)
I0129 22:47:03.556931  7239 net.cpp:122] Setting up ReLU19
I0129 22:47:03.556939  7239 net.cpp:129] Top shape: 32 320 16 16 (2621440)
I0129 22:47:03.556941  7239 net.cpp:137] Memory required for data: 1751515264
I0129 22:47:03.556946  7239 layer_factory.hpp:77] Creating layer Eltwise9_ReLU19_0_split
I0129 22:47:03.556951  7239 net.cpp:84] Creating Layer Eltwise9_ReLU19_0_split
I0129 22:47:03.556953  7239 net.cpp:406] Eltwise9_ReLU19_0_split <- Eltwise9
I0129 22:47:03.556959  7239 net.cpp:380] Eltwise9_ReLU19_0_split -> Eltwise9_ReLU19_0_split_0
I0129 22:47:03.556965  7239 net.cpp:380] Eltwise9_ReLU19_0_split -> Eltwise9_ReLU19_0_split_1
I0129 22:47:03.557000  7239 net.cpp:122] Setting up Eltwise9_ReLU19_0_split
I0129 22:47:03.557005  7239 net.cpp:129] Top shape: 32 320 16 16 (2621440)
I0129 22:47:03.557008  7239 net.cpp:129] Top shape: 32 320 16 16 (2621440)
I0129 22:47:03.557011  7239 net.cpp:137] Memory required for data: 1772486784
I0129 22:47:03.557013  7239 layer_factory.hpp:77] Creating layer Convolution23
I0129 22:47:03.557021  7239 net.cpp:84] Creating Layer Convolution23
I0129 22:47:03.557024  7239 net.cpp:406] Convolution23 <- Eltwise9_ReLU19_0_split_0
I0129 22:47:03.557030  7239 net.cpp:380] Convolution23 -> Convolution23
I0129 22:47:03.560184  7239 net.cpp:122] Setting up Convolution23
I0129 22:47:03.560195  7239 net.cpp:129] Top shape: 32 640 8 8 (1310720)
I0129 22:47:03.560199  7239 net.cpp:137] Memory required for data: 1777729664
I0129 22:47:03.560204  7239 layer_factory.hpp:77] Creating layer BatchNorm23
I0129 22:47:03.560211  7239 net.cpp:84] Creating Layer BatchNorm23
I0129 22:47:03.560215  7239 net.cpp:406] BatchNorm23 <- Convolution23
I0129 22:47:03.560221  7239 net.cpp:367] BatchNorm23 -> Convolution23 (in-place)
I0129 22:47:03.560381  7239 net.cpp:122] Setting up BatchNorm23
I0129 22:47:03.560387  7239 net.cpp:129] Top shape: 32 640 8 8 (1310720)
I0129 22:47:03.560389  7239 net.cpp:137] Memory required for data: 1782972544
I0129 22:47:03.560395  7239 layer_factory.hpp:77] Creating layer Scale23
I0129 22:47:03.560401  7239 net.cpp:84] Creating Layer Scale23
I0129 22:47:03.560405  7239 net.cpp:406] Scale23 <- Convolution23
I0129 22:47:03.560407  7239 net.cpp:367] Scale23 -> Convolution23 (in-place)
I0129 22:47:03.560436  7239 layer_factory.hpp:77] Creating layer Scale23
I0129 22:47:03.560529  7239 net.cpp:122] Setting up Scale23
I0129 22:47:03.560535  7239 net.cpp:129] Top shape: 32 640 8 8 (1310720)
I0129 22:47:03.560537  7239 net.cpp:137] Memory required for data: 1788215424
I0129 22:47:03.560541  7239 layer_factory.hpp:77] Creating layer Convolution24
I0129 22:47:03.560550  7239 net.cpp:84] Creating Layer Convolution24
I0129 22:47:03.560554  7239 net.cpp:406] Convolution24 <- Eltwise9_ReLU19_0_split_1
I0129 22:47:03.560560  7239 net.cpp:380] Convolution24 -> Convolution24
I0129 22:47:03.576489  7239 net.cpp:122] Setting up Convolution24
I0129 22:47:03.576503  7239 net.cpp:129] Top shape: 32 640 8 8 (1310720)
I0129 22:47:03.576506  7239 net.cpp:137] Memory required for data: 1793458304
I0129 22:47:03.576511  7239 layer_factory.hpp:77] Creating layer BatchNorm24
I0129 22:47:03.576517  7239 net.cpp:84] Creating Layer BatchNorm24
I0129 22:47:03.576521  7239 net.cpp:406] BatchNorm24 <- Convolution24
I0129 22:47:03.576527  7239 net.cpp:367] BatchNorm24 -> Convolution24 (in-place)
I0129 22:47:03.576687  7239 net.cpp:122] Setting up BatchNorm24
I0129 22:47:03.576694  7239 net.cpp:129] Top shape: 32 640 8 8 (1310720)
I0129 22:47:03.576696  7239 net.cpp:137] Memory required for data: 1798701184
I0129 22:47:03.576701  7239 layer_factory.hpp:77] Creating layer Scale24
I0129 22:47:03.576706  7239 net.cpp:84] Creating Layer Scale24
I0129 22:47:03.576709  7239 net.cpp:406] Scale24 <- Convolution24
I0129 22:47:03.576714  7239 net.cpp:367] Scale24 -> Convolution24 (in-place)
I0129 22:47:03.576745  7239 layer_factory.hpp:77] Creating layer Scale24
I0129 22:47:03.576835  7239 net.cpp:122] Setting up Scale24
I0129 22:47:03.576844  7239 net.cpp:129] Top shape: 32 640 8 8 (1310720)
I0129 22:47:03.576858  7239 net.cpp:137] Memory required for data: 1803944064
I0129 22:47:03.576863  7239 layer_factory.hpp:77] Creating layer ReLU22
I0129 22:47:03.576866  7239 net.cpp:84] Creating Layer ReLU22
I0129 22:47:03.576869  7239 net.cpp:406] ReLU22 <- Convolution24
I0129 22:47:03.576874  7239 net.cpp:367] ReLU22 -> Convolution24 (in-place)
I0129 22:47:03.577013  7239 net.cpp:122] Setting up ReLU22
I0129 22:47:03.577020  7239 net.cpp:129] Top shape: 32 640 8 8 (1310720)
I0129 22:47:03.577023  7239 net.cpp:137] Memory required for data: 1809186944
I0129 22:47:03.577025  7239 layer_factory.hpp:77] Creating layer Convolution25
I0129 22:47:03.577034  7239 net.cpp:84] Creating Layer Convolution25
I0129 22:47:03.577038  7239 net.cpp:406] Convolution25 <- Convolution24
I0129 22:47:03.577042  7239 net.cpp:380] Convolution25 -> Convolution25
I0129 22:47:03.608245  7239 net.cpp:122] Setting up Convolution25
I0129 22:47:03.608270  7239 net.cpp:129] Top shape: 32 640 8 8 (1310720)
I0129 22:47:03.608273  7239 net.cpp:137] Memory required for data: 1814429824
I0129 22:47:03.608281  7239 layer_factory.hpp:77] Creating layer BatchNorm25
I0129 22:47:03.608292  7239 net.cpp:84] Creating Layer BatchNorm25
I0129 22:47:03.608297  7239 net.cpp:406] BatchNorm25 <- Convolution25
I0129 22:47:03.608304  7239 net.cpp:367] BatchNorm25 -> Convolution25 (in-place)
I0129 22:47:03.608471  7239 net.cpp:122] Setting up BatchNorm25
I0129 22:47:03.608479  7239 net.cpp:129] Top shape: 32 640 8 8 (1310720)
I0129 22:47:03.608480  7239 net.cpp:137] Memory required for data: 1819672704
I0129 22:47:03.608485  7239 layer_factory.hpp:77] Creating layer Scale25
I0129 22:47:03.608492  7239 net.cpp:84] Creating Layer Scale25
I0129 22:47:03.608496  7239 net.cpp:406] Scale25 <- Convolution25
I0129 22:47:03.608500  7239 net.cpp:367] Scale25 -> Convolution25 (in-place)
I0129 22:47:03.608533  7239 layer_factory.hpp:77] Creating layer Scale25
I0129 22:47:03.608629  7239 net.cpp:122] Setting up Scale25
I0129 22:47:03.608635  7239 net.cpp:129] Top shape: 32 640 8 8 (1310720)
I0129 22:47:03.608638  7239 net.cpp:137] Memory required for data: 1824915584
I0129 22:47:03.608641  7239 layer_factory.hpp:77] Creating layer Eltwise11
I0129 22:47:03.608647  7239 net.cpp:84] Creating Layer Eltwise11
I0129 22:47:03.608651  7239 net.cpp:406] Eltwise11 <- Convolution23
I0129 22:47:03.608654  7239 net.cpp:406] Eltwise11 <- Convolution25
I0129 22:47:03.608659  7239 net.cpp:380] Eltwise11 -> Eltwise11
I0129 22:47:03.608681  7239 net.cpp:122] Setting up Eltwise11
I0129 22:47:03.608686  7239 net.cpp:129] Top shape: 32 640 8 8 (1310720)
I0129 22:47:03.608688  7239 net.cpp:137] Memory required for data: 1830158464
I0129 22:47:03.608691  7239 layer_factory.hpp:77] Creating layer ReLU23
I0129 22:47:03.608695  7239 net.cpp:84] Creating Layer ReLU23
I0129 22:47:03.608698  7239 net.cpp:406] ReLU23 <- Eltwise11
I0129 22:47:03.608701  7239 net.cpp:367] ReLU23 -> Eltwise11 (in-place)
I0129 22:47:03.608840  7239 net.cpp:122] Setting up ReLU23
I0129 22:47:03.608847  7239 net.cpp:129] Top shape: 32 640 8 8 (1310720)
I0129 22:47:03.608850  7239 net.cpp:137] Memory required for data: 1835401344
I0129 22:47:03.608852  7239 layer_factory.hpp:77] Creating layer Eltwise11_ReLU23_0_split
I0129 22:47:03.608858  7239 net.cpp:84] Creating Layer Eltwise11_ReLU23_0_split
I0129 22:47:03.608861  7239 net.cpp:406] Eltwise11_ReLU23_0_split <- Eltwise11
I0129 22:47:03.608866  7239 net.cpp:380] Eltwise11_ReLU23_0_split -> Eltwise11_ReLU23_0_split_0
I0129 22:47:03.608872  7239 net.cpp:380] Eltwise11_ReLU23_0_split -> Eltwise11_ReLU23_0_split_1
I0129 22:47:03.608906  7239 net.cpp:122] Setting up Eltwise11_ReLU23_0_split
I0129 22:47:03.608912  7239 net.cpp:129] Top shape: 32 640 8 8 (1310720)
I0129 22:47:03.608916  7239 net.cpp:129] Top shape: 32 640 8 8 (1310720)
I0129 22:47:03.608918  7239 net.cpp:137] Memory required for data: 1845887104
I0129 22:47:03.608920  7239 layer_factory.hpp:77] Creating layer Convolution26
I0129 22:47:03.608929  7239 net.cpp:84] Creating Layer Convolution26
I0129 22:47:03.608932  7239 net.cpp:406] Convolution26 <- Eltwise11_ReLU23_0_split_0
I0129 22:47:03.608952  7239 net.cpp:380] Convolution26 -> Convolution26
I0129 22:47:03.640107  7239 net.cpp:122] Setting up Convolution26
I0129 22:47:03.640132  7239 net.cpp:129] Top shape: 32 640 8 8 (1310720)
I0129 22:47:03.640136  7239 net.cpp:137] Memory required for data: 1851129984
I0129 22:47:03.640143  7239 layer_factory.hpp:77] Creating layer BatchNorm26
I0129 22:47:03.640152  7239 net.cpp:84] Creating Layer BatchNorm26
I0129 22:47:03.640156  7239 net.cpp:406] BatchNorm26 <- Convolution26
I0129 22:47:03.640163  7239 net.cpp:367] BatchNorm26 -> Convolution26 (in-place)
I0129 22:47:03.640336  7239 net.cpp:122] Setting up BatchNorm26
I0129 22:47:03.640341  7239 net.cpp:129] Top shape: 32 640 8 8 (1310720)
I0129 22:47:03.640343  7239 net.cpp:137] Memory required for data: 1856372864
I0129 22:47:03.640349  7239 layer_factory.hpp:77] Creating layer Scale26
I0129 22:47:03.640357  7239 net.cpp:84] Creating Layer Scale26
I0129 22:47:03.640359  7239 net.cpp:406] Scale26 <- Convolution26
I0129 22:47:03.640362  7239 net.cpp:367] Scale26 -> Convolution26 (in-place)
I0129 22:47:03.640399  7239 layer_factory.hpp:77] Creating layer Scale26
I0129 22:47:03.640492  7239 net.cpp:122] Setting up Scale26
I0129 22:47:03.640498  7239 net.cpp:129] Top shape: 32 640 8 8 (1310720)
I0129 22:47:03.640501  7239 net.cpp:137] Memory required for data: 1861615744
I0129 22:47:03.640506  7239 layer_factory.hpp:77] Creating layer ReLU24
I0129 22:47:03.640511  7239 net.cpp:84] Creating Layer ReLU24
I0129 22:47:03.640513  7239 net.cpp:406] ReLU24 <- Convolution26
I0129 22:47:03.640517  7239 net.cpp:367] ReLU24 -> Convolution26 (in-place)
I0129 22:47:03.640658  7239 net.cpp:122] Setting up ReLU24
I0129 22:47:03.640664  7239 net.cpp:129] Top shape: 32 640 8 8 (1310720)
I0129 22:47:03.640667  7239 net.cpp:137] Memory required for data: 1866858624
I0129 22:47:03.640669  7239 layer_factory.hpp:77] Creating layer Convolution27
I0129 22:47:03.640679  7239 net.cpp:84] Creating Layer Convolution27
I0129 22:47:03.640682  7239 net.cpp:406] Convolution27 <- Convolution26
I0129 22:47:03.640688  7239 net.cpp:380] Convolution27 -> Convolution27
I0129 22:47:03.671751  7239 net.cpp:122] Setting up Convolution27
I0129 22:47:03.671775  7239 net.cpp:129] Top shape: 32 640 8 8 (1310720)
I0129 22:47:03.671778  7239 net.cpp:137] Memory required for data: 1872101504
I0129 22:47:03.671785  7239 layer_factory.hpp:77] Creating layer BatchNorm27
I0129 22:47:03.671794  7239 net.cpp:84] Creating Layer BatchNorm27
I0129 22:47:03.671800  7239 net.cpp:406] BatchNorm27 <- Convolution27
I0129 22:47:03.671805  7239 net.cpp:367] BatchNorm27 -> Convolution27 (in-place)
I0129 22:47:03.671980  7239 net.cpp:122] Setting up BatchNorm27
I0129 22:47:03.671988  7239 net.cpp:129] Top shape: 32 640 8 8 (1310720)
I0129 22:47:03.671989  7239 net.cpp:137] Memory required for data: 1877344384
I0129 22:47:03.671995  7239 layer_factory.hpp:77] Creating layer Scale27
I0129 22:47:03.672001  7239 net.cpp:84] Creating Layer Scale27
I0129 22:47:03.672004  7239 net.cpp:406] Scale27 <- Convolution27
I0129 22:47:03.672008  7239 net.cpp:367] Scale27 -> Convolution27 (in-place)
I0129 22:47:03.672045  7239 layer_factory.hpp:77] Creating layer Scale27
I0129 22:47:03.672137  7239 net.cpp:122] Setting up Scale27
I0129 22:47:03.672143  7239 net.cpp:129] Top shape: 32 640 8 8 (1310720)
I0129 22:47:03.672147  7239 net.cpp:137] Memory required for data: 1882587264
I0129 22:47:03.672149  7239 layer_factory.hpp:77] Creating layer Eltwise12
I0129 22:47:03.672157  7239 net.cpp:84] Creating Layer Eltwise12
I0129 22:47:03.672160  7239 net.cpp:406] Eltwise12 <- Eltwise11_ReLU23_0_split_1
I0129 22:47:03.672164  7239 net.cpp:406] Eltwise12 <- Convolution27
I0129 22:47:03.672168  7239 net.cpp:380] Eltwise12 -> Eltwise12
I0129 22:47:03.672189  7239 net.cpp:122] Setting up Eltwise12
I0129 22:47:03.672195  7239 net.cpp:129] Top shape: 32 640 8 8 (1310720)
I0129 22:47:03.672199  7239 net.cpp:137] Memory required for data: 1887830144
I0129 22:47:03.672200  7239 layer_factory.hpp:77] Creating layer ReLU25
I0129 22:47:03.672217  7239 net.cpp:84] Creating Layer ReLU25
I0129 22:47:03.672221  7239 net.cpp:406] ReLU25 <- Eltwise12
I0129 22:47:03.672225  7239 net.cpp:367] ReLU25 -> Eltwise12 (in-place)
I0129 22:47:03.672366  7239 net.cpp:122] Setting up ReLU25
I0129 22:47:03.672374  7239 net.cpp:129] Top shape: 32 640 8 8 (1310720)
I0129 22:47:03.672375  7239 net.cpp:137] Memory required for data: 1893073024
I0129 22:47:03.672379  7239 layer_factory.hpp:77] Creating layer Eltwise12_ReLU25_0_split
I0129 22:47:03.672385  7239 net.cpp:84] Creating Layer Eltwise12_ReLU25_0_split
I0129 22:47:03.672389  7239 net.cpp:406] Eltwise12_ReLU25_0_split <- Eltwise12
I0129 22:47:03.672392  7239 net.cpp:380] Eltwise12_ReLU25_0_split -> Eltwise12_ReLU25_0_split_0
I0129 22:47:03.672397  7239 net.cpp:380] Eltwise12_ReLU25_0_split -> Eltwise12_ReLU25_0_split_1
I0129 22:47:03.672432  7239 net.cpp:122] Setting up Eltwise12_ReLU25_0_split
I0129 22:47:03.672437  7239 net.cpp:129] Top shape: 32 640 8 8 (1310720)
I0129 22:47:03.672441  7239 net.cpp:129] Top shape: 32 640 8 8 (1310720)
I0129 22:47:03.672442  7239 net.cpp:137] Memory required for data: 1903558784
I0129 22:47:03.672444  7239 layer_factory.hpp:77] Creating layer Convolution28
I0129 22:47:03.672452  7239 net.cpp:84] Creating Layer Convolution28
I0129 22:47:03.672456  7239 net.cpp:406] Convolution28 <- Eltwise12_ReLU25_0_split_0
I0129 22:47:03.672461  7239 net.cpp:380] Convolution28 -> Convolution28
I0129 22:47:03.702847  7239 net.cpp:122] Setting up Convolution28
I0129 22:47:03.702867  7239 net.cpp:129] Top shape: 32 640 8 8 (1310720)
I0129 22:47:03.702869  7239 net.cpp:137] Memory required for data: 1908801664
I0129 22:47:03.702878  7239 layer_factory.hpp:77] Creating layer BatchNorm28
I0129 22:47:03.702888  7239 net.cpp:84] Creating Layer BatchNorm28
I0129 22:47:03.702893  7239 net.cpp:406] BatchNorm28 <- Convolution28
I0129 22:47:03.702898  7239 net.cpp:367] BatchNorm28 -> Convolution28 (in-place)
I0129 22:47:03.703063  7239 net.cpp:122] Setting up BatchNorm28
I0129 22:47:03.703069  7239 net.cpp:129] Top shape: 32 640 8 8 (1310720)
I0129 22:47:03.703071  7239 net.cpp:137] Memory required for data: 1914044544
I0129 22:47:03.703076  7239 layer_factory.hpp:77] Creating layer Scale28
I0129 22:47:03.703083  7239 net.cpp:84] Creating Layer Scale28
I0129 22:47:03.703086  7239 net.cpp:406] Scale28 <- Convolution28
I0129 22:47:03.703089  7239 net.cpp:367] Scale28 -> Convolution28 (in-place)
I0129 22:47:03.703126  7239 layer_factory.hpp:77] Creating layer Scale28
I0129 22:47:03.703225  7239 net.cpp:122] Setting up Scale28
I0129 22:47:03.703232  7239 net.cpp:129] Top shape: 32 640 8 8 (1310720)
I0129 22:47:03.703233  7239 net.cpp:137] Memory required for data: 1919287424
I0129 22:47:03.703236  7239 layer_factory.hpp:77] Creating layer ReLU26
I0129 22:47:03.703243  7239 net.cpp:84] Creating Layer ReLU26
I0129 22:47:03.703245  7239 net.cpp:406] ReLU26 <- Convolution28
I0129 22:47:03.703249  7239 net.cpp:367] ReLU26 -> Convolution28 (in-place)
I0129 22:47:03.703702  7239 net.cpp:122] Setting up ReLU26
I0129 22:47:03.703716  7239 net.cpp:129] Top shape: 32 640 8 8 (1310720)
I0129 22:47:03.703719  7239 net.cpp:137] Memory required for data: 1924530304
I0129 22:47:03.703722  7239 layer_factory.hpp:77] Creating layer Convolution29
I0129 22:47:03.703730  7239 net.cpp:84] Creating Layer Convolution29
I0129 22:47:03.703735  7239 net.cpp:406] Convolution29 <- Convolution28
I0129 22:47:03.703740  7239 net.cpp:380] Convolution29 -> Convolution29
I0129 22:47:03.734148  7239 net.cpp:122] Setting up Convolution29
I0129 22:47:03.734169  7239 net.cpp:129] Top shape: 32 640 8 8 (1310720)
I0129 22:47:03.734174  7239 net.cpp:137] Memory required for data: 1929773184
I0129 22:47:03.734181  7239 layer_factory.hpp:77] Creating layer BatchNorm29
I0129 22:47:03.734190  7239 net.cpp:84] Creating Layer BatchNorm29
I0129 22:47:03.734194  7239 net.cpp:406] BatchNorm29 <- Convolution29
I0129 22:47:03.734200  7239 net.cpp:367] BatchNorm29 -> Convolution29 (in-place)
I0129 22:47:03.734369  7239 net.cpp:122] Setting up BatchNorm29
I0129 22:47:03.734385  7239 net.cpp:129] Top shape: 32 640 8 8 (1310720)
I0129 22:47:03.734387  7239 net.cpp:137] Memory required for data: 1935016064
I0129 22:47:03.734393  7239 layer_factory.hpp:77] Creating layer Scale29
I0129 22:47:03.734412  7239 net.cpp:84] Creating Layer Scale29
I0129 22:47:03.734416  7239 net.cpp:406] Scale29 <- Convolution29
I0129 22:47:03.734419  7239 net.cpp:367] Scale29 -> Convolution29 (in-place)
I0129 22:47:03.734458  7239 layer_factory.hpp:77] Creating layer Scale29
I0129 22:47:03.734553  7239 net.cpp:122] Setting up Scale29
I0129 22:47:03.734560  7239 net.cpp:129] Top shape: 32 640 8 8 (1310720)
I0129 22:47:03.734561  7239 net.cpp:137] Memory required for data: 1940258944
I0129 22:47:03.734566  7239 layer_factory.hpp:77] Creating layer Eltwise13
I0129 22:47:03.734573  7239 net.cpp:84] Creating Layer Eltwise13
I0129 22:47:03.734577  7239 net.cpp:406] Eltwise13 <- Eltwise12_ReLU25_0_split_1
I0129 22:47:03.734580  7239 net.cpp:406] Eltwise13 <- Convolution29
I0129 22:47:03.734585  7239 net.cpp:380] Eltwise13 -> Eltwise13
I0129 22:47:03.734613  7239 net.cpp:122] Setting up Eltwise13
I0129 22:47:03.734618  7239 net.cpp:129] Top shape: 32 640 8 8 (1310720)
I0129 22:47:03.734621  7239 net.cpp:137] Memory required for data: 1945501824
I0129 22:47:03.734623  7239 layer_factory.hpp:77] Creating layer ReLU27
I0129 22:47:03.734629  7239 net.cpp:84] Creating Layer ReLU27
I0129 22:47:03.734632  7239 net.cpp:406] ReLU27 <- Eltwise13
I0129 22:47:03.734637  7239 net.cpp:367] ReLU27 -> Eltwise13 (in-place)
I0129 22:47:03.735373  7239 net.cpp:122] Setting up ReLU27
I0129 22:47:03.735385  7239 net.cpp:129] Top shape: 32 640 8 8 (1310720)
I0129 22:47:03.735388  7239 net.cpp:137] Memory required for data: 1950744704
I0129 22:47:03.735391  7239 layer_factory.hpp:77] Creating layer Eltwise13_ReLU27_0_split
I0129 22:47:03.735396  7239 net.cpp:84] Creating Layer Eltwise13_ReLU27_0_split
I0129 22:47:03.735399  7239 net.cpp:406] Eltwise13_ReLU27_0_split <- Eltwise13
I0129 22:47:03.735404  7239 net.cpp:380] Eltwise13_ReLU27_0_split -> Eltwise13_ReLU27_0_split_0
I0129 22:47:03.735409  7239 net.cpp:380] Eltwise13_ReLU27_0_split -> Eltwise13_ReLU27_0_split_1
I0129 22:47:03.735447  7239 net.cpp:122] Setting up Eltwise13_ReLU27_0_split
I0129 22:47:03.735452  7239 net.cpp:129] Top shape: 32 640 8 8 (1310720)
I0129 22:47:03.735455  7239 net.cpp:129] Top shape: 32 640 8 8 (1310720)
I0129 22:47:03.735457  7239 net.cpp:137] Memory required for data: 1961230464
I0129 22:47:03.735460  7239 layer_factory.hpp:77] Creating layer Convolution30
I0129 22:47:03.735469  7239 net.cpp:84] Creating Layer Convolution30
I0129 22:47:03.735472  7239 net.cpp:406] Convolution30 <- Eltwise13_ReLU27_0_split_0
I0129 22:47:03.735477  7239 net.cpp:380] Convolution30 -> Convolution30
I0129 22:47:03.770496  7239 net.cpp:122] Setting up Convolution30
I0129 22:47:03.770519  7239 net.cpp:129] Top shape: 32 640 8 8 (1310720)
I0129 22:47:03.770520  7239 net.cpp:137] Memory required for data: 1966473344
I0129 22:47:03.770529  7239 layer_factory.hpp:77] Creating layer BatchNorm30
I0129 22:47:03.770539  7239 net.cpp:84] Creating Layer BatchNorm30
I0129 22:47:03.770543  7239 net.cpp:406] BatchNorm30 <- Convolution30
I0129 22:47:03.770550  7239 net.cpp:367] BatchNorm30 -> Convolution30 (in-place)
I0129 22:47:03.770717  7239 net.cpp:122] Setting up BatchNorm30
I0129 22:47:03.770730  7239 net.cpp:129] Top shape: 32 640 8 8 (1310720)
I0129 22:47:03.770732  7239 net.cpp:137] Memory required for data: 1971716224
I0129 22:47:03.770737  7239 layer_factory.hpp:77] Creating layer Scale30
I0129 22:47:03.770745  7239 net.cpp:84] Creating Layer Scale30
I0129 22:47:03.770748  7239 net.cpp:406] Scale30 <- Convolution30
I0129 22:47:03.770752  7239 net.cpp:367] Scale30 -> Convolution30 (in-place)
I0129 22:47:03.770789  7239 layer_factory.hpp:77] Creating layer Scale30
I0129 22:47:03.770884  7239 net.cpp:122] Setting up Scale30
I0129 22:47:03.770890  7239 net.cpp:129] Top shape: 32 640 8 8 (1310720)
I0129 22:47:03.770893  7239 net.cpp:137] Memory required for data: 1976959104
I0129 22:47:03.770912  7239 layer_factory.hpp:77] Creating layer ReLU28
I0129 22:47:03.770918  7239 net.cpp:84] Creating Layer ReLU28
I0129 22:47:03.770922  7239 net.cpp:406] ReLU28 <- Convolution30
I0129 22:47:03.770927  7239 net.cpp:367] ReLU28 -> Convolution30 (in-place)
I0129 22:47:03.771070  7239 net.cpp:122] Setting up ReLU28
I0129 22:47:03.771077  7239 net.cpp:129] Top shape: 32 640 8 8 (1310720)
I0129 22:47:03.771080  7239 net.cpp:137] Memory required for data: 1982201984
I0129 22:47:03.771083  7239 layer_factory.hpp:77] Creating layer Convolution31
I0129 22:47:03.771091  7239 net.cpp:84] Creating Layer Convolution31
I0129 22:47:03.771095  7239 net.cpp:406] Convolution31 <- Convolution30
I0129 22:47:03.771101  7239 net.cpp:380] Convolution31 -> Convolution31
I0129 22:47:03.801573  7239 net.cpp:122] Setting up Convolution31
I0129 22:47:03.801596  7239 net.cpp:129] Top shape: 32 640 8 8 (1310720)
I0129 22:47:03.801599  7239 net.cpp:137] Memory required for data: 1987444864
I0129 22:47:03.801607  7239 layer_factory.hpp:77] Creating layer BatchNorm31
I0129 22:47:03.801616  7239 net.cpp:84] Creating Layer BatchNorm31
I0129 22:47:03.801621  7239 net.cpp:406] BatchNorm31 <- Convolution31
I0129 22:47:03.801626  7239 net.cpp:367] BatchNorm31 -> Convolution31 (in-place)
I0129 22:47:03.801795  7239 net.cpp:122] Setting up BatchNorm31
I0129 22:47:03.801801  7239 net.cpp:129] Top shape: 32 640 8 8 (1310720)
I0129 22:47:03.801803  7239 net.cpp:137] Memory required for data: 1992687744
I0129 22:47:03.801808  7239 layer_factory.hpp:77] Creating layer Scale31
I0129 22:47:03.801815  7239 net.cpp:84] Creating Layer Scale31
I0129 22:47:03.801816  7239 net.cpp:406] Scale31 <- Convolution31
I0129 22:47:03.801820  7239 net.cpp:367] Scale31 -> Convolution31 (in-place)
I0129 22:47:03.801863  7239 layer_factory.hpp:77] Creating layer Scale31
I0129 22:47:03.801961  7239 net.cpp:122] Setting up Scale31
I0129 22:47:03.801967  7239 net.cpp:129] Top shape: 32 640 8 8 (1310720)
I0129 22:47:03.801970  7239 net.cpp:137] Memory required for data: 1997930624
I0129 22:47:03.801973  7239 layer_factory.hpp:77] Creating layer Eltwise14
I0129 22:47:03.801980  7239 net.cpp:84] Creating Layer Eltwise14
I0129 22:47:03.801982  7239 net.cpp:406] Eltwise14 <- Eltwise13_ReLU27_0_split_1
I0129 22:47:03.801985  7239 net.cpp:406] Eltwise14 <- Convolution31
I0129 22:47:03.801990  7239 net.cpp:380] Eltwise14 -> Eltwise14
I0129 22:47:03.802011  7239 net.cpp:122] Setting up Eltwise14
I0129 22:47:03.802016  7239 net.cpp:129] Top shape: 32 640 8 8 (1310720)
I0129 22:47:03.802018  7239 net.cpp:137] Memory required for data: 2003173504
I0129 22:47:03.802021  7239 layer_factory.hpp:77] Creating layer ReLU29
I0129 22:47:03.802026  7239 net.cpp:84] Creating Layer ReLU29
I0129 22:47:03.802027  7239 net.cpp:406] ReLU29 <- Eltwise14
I0129 22:47:03.802031  7239 net.cpp:367] ReLU29 -> Eltwise14 (in-place)
I0129 22:47:03.802170  7239 net.cpp:122] Setting up ReLU29
I0129 22:47:03.802178  7239 net.cpp:129] Top shape: 32 640 8 8 (1310720)
I0129 22:47:03.802181  7239 net.cpp:137] Memory required for data: 2008416384
I0129 22:47:03.802182  7239 layer_factory.hpp:77] Creating layer Pooling1
I0129 22:47:03.802188  7239 net.cpp:84] Creating Layer Pooling1
I0129 22:47:03.802191  7239 net.cpp:406] Pooling1 <- Eltwise14
I0129 22:47:03.802196  7239 net.cpp:380] Pooling1 -> Pooling1
I0129 22:47:03.802358  7239 net.cpp:122] Setting up Pooling1
I0129 22:47:03.802366  7239 net.cpp:129] Top shape: 32 640 1 1 (20480)
I0129 22:47:03.802368  7239 net.cpp:137] Memory required for data: 2008498304
I0129 22:47:03.802371  7239 layer_factory.hpp:77] Creating layer InnerProduct1
I0129 22:47:03.802376  7239 net.cpp:84] Creating Layer InnerProduct1
I0129 22:47:03.802379  7239 net.cpp:406] InnerProduct1 <- Pooling1
I0129 22:47:03.802383  7239 net.cpp:380] InnerProduct1 -> InnerProduct1
I0129 22:47:03.802536  7239 net.cpp:122] Setting up InnerProduct1
I0129 22:47:03.802542  7239 net.cpp:129] Top shape: 32 10 (320)
I0129 22:47:03.802544  7239 net.cpp:137] Memory required for data: 2008499584
I0129 22:47:03.802563  7239 layer_factory.hpp:77] Creating layer SoftmaxWithLoss1
I0129 22:47:03.802569  7239 net.cpp:84] Creating Layer SoftmaxWithLoss1
I0129 22:47:03.802572  7239 net.cpp:406] SoftmaxWithLoss1 <- InnerProduct1
I0129 22:47:03.802575  7239 net.cpp:406] SoftmaxWithLoss1 <- Data2
I0129 22:47:03.802580  7239 net.cpp:380] SoftmaxWithLoss1 -> SoftmaxWithLoss1
…
I0129 22:47:03.804483  7239 net.cpp:294] The NetState phase (1) differed from the phase (0) specified by a rule in layer Data1
I0129 22:47:03.804950  7239 net.cpp:51] Initializing net from parameters: 
name: "resnet_cifar10"
state {
  phase: TEST
}
layer {
  name: "Data1"
  type: "Data"
  top: "Data1"
  top: "Data2"
  include {
    phase: TEST
  }
  transform_param {
    crop_size: 32
    mean_file: "data/cifar10/pad4_mean.binaryproto"
  }
  data_param {
    source: "data/cifar10/cifar10_pad4_test_lmdb"
    batch_size: 50
    backend: LMDB
  }
}
layer {
  name: "Convolution1"
  type: "Convolution"
  bottom: "Data1"
  top: "Convolution1"
  param {
    lr_mult: 1
    decay_mult: 1
  }
  param {
    lr_mult: 2
    decay_mult: 0
  }
  convolution_param {
    num_output: 160
    pad: 1
    kernel_size: 3
    stride: 1
    weight_filler {
      type: "msra"
    }
    bias_filler {
      type: "constant"
      value: 0
    }
  }
}
layer {
  name: "BatchNorm1"
  type: "BatchNorm"
  bottom: "Convolution1"
  top: "Convolution1"
  param {
    lr_mult: 0
    decay_mult: 0
  }
  param {
    lr_mult: 0
    decay_mult: 0
  }
  param {
    lr_mult: 0
    decay_mult: 0
  }
}
layer {
  name: "Scale1"
  type: "Scale"
  bottom: "Convolution1"
  top: "Convolution1"
  scale_param {
    bias_term: true
  }
}
layer {
  name: "ReLU1"
  type: "ReLU"
  bottom: "Convolution1"
  top: "Convolution1"
}
layer {
  name: "Convolution2"
  type: "Convolution"
  bottom: "Convolution1"
  top: "Convolution2"
  param {
    lr_mult: 1
    decay_mult: 1
  }
  param {
    lr_mult: 2
    decay_mult: 0
  }
  convolution_param {
    num_output: 160
    pad: 1
    kernel_size: 3
    stride: 1
    weight_filler {
      type: "msra"
    }
    bias_filler {
      type: "constant"
      value: 0
    }
  }
}
layer {
  name: "BatchNorm2"
  type: "BatchNorm"
  bottom: "Convolution2"
  top: "Convolution2"
  param {
    lr_mult: 0
    decay_mult: 0
  }
  param {
    lr_mult: 0
    decay_mult: 0
  }
  param {
    lr_mult: 0
    decay_mult: 0
  }
}
layer {
  name: "Scale2"
  type: "Scale"
  bottom: "Convolution2"
  top: "Convolution2"
  scale_param {
    bias_term: true
  }
}
layer {
  name: "ReLU2"
  type: "ReLU"
  bottom: "Convolution2"
  top: "Convolution2"
}
layer {
  name: "Convolution3"
  type: "Convolution"
  bottom: "Convolution2"
  top: "Convolution3"
  param {
    lr_mult: 1
    decay_mult: 1
  }
  param {
    lr_mult: 2
    decay_mult: 0
  }
  convolution_param {
    num_output: 160
    pad: 1
    kernel_size: 3
    stride: 1
    weight_filler {
      type: "msra"
    }
    bias_filler {
      type: "constant"
      value: 0
    }
  }
}
layer {
  name: "BatchNorm3"
  type: "BatchNorm"
  bottom: "Convolution3"
  top: "Convolution3"
  param {
    lr_mult: 0
    decay_mult: 0
  }
  param {
    lr_mult: 0
    decay_mult: 0
  }
  param {
    lr_mult: 0
    decay_mult: 0
  }
}
layer {
  name: "Scale3"
  type: "Scale"
  bottom: "Convolution3"
  top: "Convolution3"
  scale_param {
    bias_term: true
  }
}
layer {
  name: "Eltwise1"
  type: "Eltwise"
  bottom: "Convolution1"
  bottom: "Convolution3"
  top: "Eltwise1"
  eltwise_param {
    operation: SUM
  }
}
layer {
  name: "ReLU3"
  type: "ReLU"
  bottom: "Eltwise1"
  top: "Eltwise1"
}
layer {
  name: "Convolution4"
  type: "Convolution"
  bottom: "Eltwise1"
  top: "Convolution4"
  param {
    lr_mult: 1
    decay_mult: 1
  }
  param {
    lr_mult: 2
    decay_mult: 0
  }
  convolution_param {
    num_output: 160
    pad: 1
    kernel_size: 3
    stride: 1
    weight_filler {
      type: "msra"
    }
    bias_filler {
      type: "constant"
      value: 0
    }
  }
}
layer {
  name: "BatchNorm4"
  type: "BatchNorm"
  bottom: "Convolution4"
  top: "Convolution4"
  param {
    lr_mult: 0
    decay_mult: 0
  }
  param {
    lr_mult: 0
    decay_mult: 0
  }
  param {
    lr_mult: 0
    decay_mult: 0
  }
}
layer {
  name: "Scale4"
  type: "Scale"
  bottom: "Convolution4"
  top: "Convolution4"
  scale_param {
    bias_term: true
  }
}
layer {
  name: "ReLU4"
  type: "ReLU"
  bottom: "Convolution4"
  top: "Convolution4"
}
layer {
  name: "Convolution5"
  type: "Convolution"
  bottom: "Convolution4"
  top: "Convolution5"
  param {
    lr_mult: 1
    decay_mult: 1
  }
  param {
    lr_mult: 2
    decay_mult: 0
  }
  convolution_param {
    num_output: 160
    pad: 1
    kernel_size: 3
    stride: 1
    weight_filler {
      type: "msra"
    }
    bias_filler {
      type: "constant"
      value: 0
    }
  }
}
layer {
  name: "BatchNorm5"
  type: "BatchNorm"
  bottom: "Convolution5"
  top: "Convolution5"
  param {
    lr_mult: 0
    decay_mult: 0
  }
  param {
    lr_mult: 0
    decay_mult: 0
  }
  param {
    lr_mult: 0
    decay_mult: 0
  }
}
layer {
  name: "Scale5"
  type: "Scale"
  bottom: "Convolution5"
  top: "Convolution5"
  scale_param {
    bias_term: true
  }
}
layer {
  name: "Eltwise2"
  type: "Eltwise"
  bottom: "Eltwise1"
  bottom: "Convolution5"
  top: "Eltwise2"
  eltwise_param {
    operation: SUM
  }
}
layer {
  name: "ReLU5"
  type: "ReLU"
  bottom: "Eltwise2"
  top: "Eltwise2"
}
layer {
  name: "Convolution6"
  type: "Convolution"
  bottom: "Eltwise2"
  top: "Convolution6"
  param {
    lr_mult: 1
    decay_mult: 1
  }
  param {
    lr_mult: 2
    decay_mult: 0
  }
  convolution_param {
    num_output: 160
    pad: 1
    kernel_size: 3
    stride: 1
    weight_filler {
      type: "msra"
    }
    bias_filler {
      type: "constant"
      value: 0
    }
  }
}
layer {
  name: "BatchNorm6"
  type: "BatchNorm"
  bottom: "Convolution6"
  top: "Convolution6"
  param {
    lr_mult: 0
    decay_mult: 0
  }
  param {
    lr_mult: 0
    decay_mult: 0
  }
  param {
    lr_mult: 0
    decay_mult: 0
  }
}
layer {
  name: "Scale6"
  type: "Scale"
  bottom: "Convolution6"
  top: "Convolution6"
  scale_param {
    bias_term: true
  }
}
layer {
  name: "ReLU6"
  type: "ReLU"
  bottom: "Convolution6"
  top: "Convolution6"
}
layer {
  name: "Convolution7"
  type: "Convolution"
  bottom: "Convolution6"
  top: "Convolution7"
  param {
    lr_mult: 1
    decay_mult: 1
  }
  param {
    lr_mult: 2
    decay_mult: 0
  }
  convolution_param {
    num_output: 160
    pad: 1
    kernel_size: 3
    stride: 1
    weight_filler {
      type: "msra"
    }
    bias_filler {
      type: "constant"
      value: 0
    }
  }
}
layer {
  name: "BatchNorm7"
  type: "BatchNorm"
  bottom: "Convolution7"
  top: "Convolution7"
  param {
    lr_mult: 0
    decay_mult: 0
  }
  param {
    lr_mult: 0
    decay_mult: 0
  }
  param {
    lr_mult: 0
    decay_mult: 0
  }
}
layer {
  name: "Scale7"
  type: "Scale"
  bottom: "Convolution7"
  top: "Convolution7"
  scale_param {
    bias_term: true
  }
}
layer {
  name: "Eltwise3"
  type: "Eltwise"
  bottom: "Eltwise2"
  bottom: "Convolution7"
  top: "Eltwise3"
  eltwise_param {
    operation: SUM
  }
}
layer {
  name: "ReLU7"
  type: "ReLU"
  bottom: "Eltwise3"
  top: "Eltwise3"
}
layer {
  name: "Convolution8"
  type: "Convolution"
  bottom: "Eltwise3"
  top: "Convolution8"
  param {
    lr_mult: 1
    decay_mult: 1
  }
  param {
    lr_mult: 2
    decay_mult: 0
  }
  convolution_param {
    num_output: 160
    pad: 1
    kernel_size: 3
    stride: 1
    weight_filler {
      type: "msra"
    }
    bias_filler {
      type: "constant"
      value: 0
    }
  }
}
layer {
  name: "BatchNorm8"
  type: "BatchNorm"
  bottom: "Convolution8"
  top: "Convolution8"
  param {
    lr_mult: 0
    decay_mult: 0
  }
  param {
    lr_mult: 0
    decay_mult: 0
  }
  param {
    lr_mult: 0
    decay_mult: 0
  }
}
layer {
  name: "Scale8"
  type: "Scale"
  bottom: "Convolution8"
  top: "Convolution8"
  scale_param {
    bias_term: true
  }
}
layer {
  name: "ReLU8"
  type: "ReLU"
  bottom: "Convolution8"
  top: "Convolution8"
}
layer {
  name: "Convolution9"
  type: "Convolution"
  bottom: "Convolution8"
  top: "Convolution9"
  param {
    lr_mult: 1
    decay_mult: 1
  }
  param {
    lr_mult: 2
    decay_mult: 0
  }
  convolution_param {
    num_output: 160
    pad: 1
    kernel_size: 3
    stride: 1
    weight_filler {
      type: "msra"
    }
    bias_filler {
      type: "constant"
      value: 0
    }
  }
}
layer {
  name: "BatchNorm9"
  type: "BatchNorm"
  bottom: "Convolution9"
  top: "Convolution9"
  param {
    lr_mult: 0
    decay_mult: 0
  }
  param {
    lr_mult: 0
    decay_mult: 0
  }
  param {
    lr_mult: 0
    decay_mult: 0
  }
}
layer {
  name: "Scale9"
  type: "Scale"
  bottom: "Convolution9"
  top: "Convolution9"
  scale_param {
    bias_term: true
  }
}
layer {
  name: "Eltwise4"
  type: "Eltwise"
  bottom: "Eltwise3"
  bottom: "Convolution9"
  top: "Eltwise4"
  eltwise_param {
    operation: SUM
  }
}
layer {
  name: "ReLU9"
  type: "ReLU"
  bottom: "Eltwise4"
  top: "Eltwise4"
}
layer {
  name: "Convolution10"
  type: "Convolution"
  bottom: "Eltwise4"
  top: "Convolution10"
  param {
    lr_mult: 1
    decay_mult: 1
  }
  param {
    lr_mult: 2
    decay_mult: 0
  }
  convolution_param {
    num_output: 160
    pad: 1
    kernel_size: 3
    stride: 1
    weight_filler {
      type: "msra"
    }
    bias_filler {
      type: "constant"
      value: 0
    }
  }
}
layer {
  name: "BatchNorm10"
  type: "BatchNorm"
  bottom: "Convolution10"
  top: "Convolution10"
  param {
    lr_mult: 0
    decay_mult: 0
  }
  param {
    lr_mult: 0
    decay_mult: 0
  }
  param {
    lr_mult: 0
    decay_mult: 0
  }
}
layer {
  name: "Scale10"
  type: "Scale"
  bottom: "Convolution10"
  top: "Convolution10"
  scale_param {
    bias_term: true
  }
}
layer {
  name: "ReLU10"
  type: "ReLU"
  bottom: "Convolution10"
  top: "Convolution10"
}
layer {
  name: "Convolution11"
  type: "Convolution"
  bottom: "Convolution10"
  top: "Convolution11"
  param {
    lr_mult: 1
    decay_mult: 1
  }
  param {
    lr_mult: 2
    decay_mult: 0
  }
  convolution_param {
    num_output: 160
    pad: 1
    kernel_size: 3
    stride: 1
    weight_filler {
      type: "msra"
    }
    bias_filler {
      type: "constant"
      value: 0
    }
  }
}
layer {
  name: "BatchNorm11"
  type: "BatchNorm"
  bottom: "Convolution11"
  top: "Convolution11"
  param {
    lr_mult: 0
    decay_mult: 0
  }
  param {
    lr_mult: 0
    decay_mult: 0
  }
  param {
    lr_mult: 0
    decay_mult: 0
  }
}
layer {
  name: "Scale11"
  type: "Scale"
  bottom: "Convolution11"
  top: "Convolution11"
  scale_param {
    bias_term: true
  }
}
layer {
  name: "Eltwise5"
  type: "Eltwise"
  bottom: "Eltwise4"
  bottom: "Convolution11"
  top: "Eltwise5"
  eltwise_param {
    operation: SUM
  }
}
layer {
  name: "ReLU11"
  type: "ReLU"
  bottom: "Eltwise5"
  top: "Eltwise5"
}
layer {
  name: "Convolution12"
  type: "Convolution"
  bottom: "Eltwise5"
  top: "Convolution12"
  param {
    lr_mult: 1
    decay_mult: 1
  }
  param {
    lr_mult: 2
    decay_mult: 0
  }
  convolution_param {
    num_output: 320
    pad: 0
    kernel_size: 1
    stride: 2
    weight_filler {
      type: "msra"
    }
    bias_filler {
      type: "constant"
      value: 0
    }
  }
}
layer {
  name: "BatchNorm12"
  type: "BatchNorm"
  bottom: "Convolution12"
  top: "Convolution12"
  param {
    lr_mult: 0
    decay_mult: 0
  }
  param {
    lr_mult: 0
    decay_mult: 0
  }
  param {
    lr_mult: 0
    decay_mult: 0
  }
}
layer {
  name: "Scale12"
  type: "Scale"
  bottom: "Convolution12"
  top: "Convolution12"
  scale_param {
    bias_term: true
  }
}
layer {
  name: "Convolution13"
  type: "Convolution"
  bottom: "Eltwise5"
  top: "Convolution13"
  param {
    lr_mult: 1
    decay_mult: 1
  }
  param {
    lr_mult: 2
    decay_mult: 0
  }
  convolution_param {
    num_output: 320
    pad: 1
    kernel_size: 3
    stride: 2
    weight_filler {
      type: "msra"
    }
    bias_filler {
      type: "constant"
      value: 0
    }
  }
}
layer {
  name: "BatchNorm13"
  type: "BatchNorm"
  bottom: "Convolution13"
  top: "Convolution13"
  param {
    lr_mult: 0
    decay_mult: 0
  }
  param {
    lr_mult: 0
    decay_mult: 0
  }
  param {
    lr_mult: 0
    decay_mult: 0
  }
}
layer {
  name: "Scale13"
  type: "Scale"
  bottom: "Convolution13"
  top: "Convolution13"
  scale_param {
    bias_term: true
  }
}
layer {
  name: "ReLU12"
  type: "ReLU"
  bottom: "Convolution13"
  top: "Convolution13"
}
layer {
  name: "Convolution14"
  type: "Convolution"
  bottom: "Convolution13"
  top: "Convolution14"
  param {
    lr_mult: 1
    decay_mult: 1
  }
  param {
    lr_mult: 2
    decay_mult: 0
  }
  convolution_param {
    num_output: 320
    pad: 1
    kernel_size: 3
    stride: 1
    weight_filler {
      type: "msra"
    }
    bias_filler {
      type: "constant"
      value: 0
    }
  }
}
layer {
  name: "BatchNorm14"
  type: "BatchNorm"
  bottom: "Convolution14"
  top: "Convolution14"
  param {
    lr_mult: 0
    decay_mult: 0
  }
  param {
    lr_mult: 0
    decay_mult: 0
  }
  param {
    lr_mult: 0
    decay_mult: 0
  }
}
layer {
  name: "Scale14"
  type: "Scale"
  bottom: "Convolution14"
  top: "Convolution14"
  scale_param {
    bias_term: true
  }
}
layer {
  name: "Eltwise6"
  type: "Eltwise"
  bottom: "Convolution12"
  bottom: "Convolution14"
  top: "Eltwise6"
  eltwise_param {
    operation: SUM
  }
}
layer {
  name: "ReLU13"
  type: "ReLU"
  bottom: "Eltwise6"
  top: "Eltwise6"
}
layer {
  name: "Convolution15"
  type: "Convolution"
  bottom: "Eltwise6"
  top: "Convolution15"
  param {
    lr_mult: 1
    decay_mult: 1
  }
  param {
    lr_mult: 2
    decay_mult: 0
  }
  convolution_param {
    num_output: 320
    pad: 1
    kernel_size: 3
    stride: 1
    weight_filler {
      type: "msra"
    }
    bias_filler {
      type: "constant"
      value: 0
    }
  }
}
layer {
  name: "BatchNorm15"
  type: "BatchNorm"
  bottom: "Convolution15"
  top: "Convolution15"
  param {
    lr_mult: 0
    decay_mult: 0
  }
  param {
    lr_mult: 0
    decay_mult: 0
  }
  param {
    lr_mult: 0
    decay_mult: 0
  }
}
layer {
  name: "Scale15"
  type: "Scale"
  bottom: "Convolution15"
  top: "Convolution15"
  scale_param {
    bias_term: true
  }
}
layer {
  name: "ReLU14"
  type: "ReLU"
  bottom: "Convolution15"
  top: "Convolution15"
}
layer {
  name: "Convolution16"
  type: "Convolution"
  bottom: "Convolution15"
  top: "Convolution16"
  param {
    lr_mult: 1
    decay_mult: 1
  }
  param {
    lr_mult: 2
    decay_mult: 0
  }
  convolution_param {
    num_output: 320
    pad: 1
    kernel_size: 3
    stride: 1
    weight_filler {
      type: "msra"
    }
    bias_filler {
      type: "constant"
      value: 0
    }
  }
}
layer {
  name: "BatchNorm16"
  type: "BatchNorm"
  bottom: "Convolution16"
  top: "Convolution16"
  param {
    lr_mult: 0
    decay_mult: 0
  }
  param {
    lr_mult: 0
    decay_mult: 0
  }
  param {
    lr_mult: 0
    decay_mult: 0
  }
}
layer {
  name: "Scale16"
  type: "Scale"
  bottom: "Convolution16"
  top: "Convolution16"
  scale_param {
    bias_term: true
  }
}
layer {
  name: "Eltwise7"
  type: "Eltwise"
  bottom: "Eltwise6"
  bottom: "Convolution16"
  top: "Eltwise7"
  eltwise_param {
    operation: SUM
  }
}
layer {
  name: "ReLU15"
  type: "ReLU"
  bottom: "Eltwise7"
  top: "Eltwise7"
}
layer {
  name: "Convolution17"
  type: "Convolution"
  bottom: "Eltwise7"
  top: "Convolution17"
  param {
    lr_mult: 1
    decay_mult: 1
  }
  param {
    lr_mult: 2
    decay_mult: 0
  }
  convolution_param {
    num_output: 320
    pad: 1
    kernel_size: 3
    stride: 1
    weight_filler {
      type: "msra"
    }
    bias_filler {
      type: "constant"
      value: 0
    }
  }
}
layer {
  name: "BatchNorm17"
  type: "BatchNorm"
  bottom: "Convolution17"
  top: "Convolution17"
  param {
    lr_mult: 0
    decay_mult: 0
  }
  param {
    lr_mult: 0
    decay_mult: 0
  }
  param {
    lr_mult: 0
    decay_mult: 0
  }
}
layer {
  name: "Scale17"
  type: "Scale"
  bottom: "Convolution17"
  top: "Convolution17"
  scale_param {
    bias_term: true
  }
}
layer {
  name: "ReLU16"
  type: "ReLU"
  bottom: "Convolution17"
  top: "Convolution17"
}
layer {
  name: "Convolution18"
  type: "Convolution"
  bottom: "Convolution17"
  top: "Convolution18"
  param {
    lr_mult: 1
    decay_mult: 1
  }
  param {
    lr_mult: 2
    decay_mult: 0
  }
  convolution_param {
    num_output: 320
    pad: 1
    kernel_size: 3
    stride: 1
    weight_filler {
      type: "msra"
    }
    bias_filler {
      type: "constant"
      value: 0
    }
  }
}
layer {
  name: "BatchNorm18"
  type: "BatchNorm"
  bottom: "Convolution18"
  top: "Convolution18"
  param {
    lr_mult: 0
    decay_mult: 0
  }
  param {
    lr_mult: 0
    decay_mult: 0
  }
  param {
    lr_mult: 0
    decay_mult: 0
  }
}
layer {
  name: "Scale18"
  type: "Scale"
  bottom: "Convolution18"
  top: "Convolution18"
  scale_param {
    bias_term: true
  }
}
layer {
  name: "Eltwise8"
  type: "Eltwise"
  bottom: "Eltwise7"
  bottom: "Convolution18"
  top: "Eltwise8"
  eltwise_param {
    operation: SUM
  }
}
layer {
  name: "ReLU17"
  type: "ReLU"
  bottom: "Eltwise8"
  top: "Eltwise8"
}
layer {
  name: "Convolution19"
  type: "Convolution"
  bottom: "Eltwise8"
  top: "Convolution19"
  param {
    lr_mult: 1
    decay_mult: 1
  }
  param {
    lr_mult: 2
    decay_mult: 0
  }
  convolution_param {
    num_output: 320
    pad: 1
    kernel_size: 3
    stride: 1
    weight_filler {
      type: "msra"
    }
    bias_filler {
      type: "constant"
      value: 0
    }
  }
}
layer {
  name: "BatchNorm19"
  type: "BatchNorm"
  bottom: "Convolution19"
  top: "Convolution19"
  param {
    lr_mult: 0
    decay_mult: 0
  }
  param {
    lr_mult: 0
    decay_mult: 0
  }
  param {
    lr_mult: 0
    decay_mult: 0
  }
}
layer {
  name: "Scale19"
  type: "Scale"
  bottom: "Convolution19"
  top: "Convolution19"
  scale_param {
    bias_term: true
  }
}
layer {
  name: "ReLU18"
  type: "ReLU"
  bottom: "Convolution19"
  top: "Convolution19"
}
layer {
  name: "Convolution20"
  type: "Convolution"
  bottom: "Convolution19"
  top: "Convolution20"
  param {
    lr_mult: 1
    decay_mult: 1
  }
  param {
    lr_mult: 2
    decay_mult: 0
  }
  convolution_param {
    num_output: 320
    pad: 1
    kernel_size: 3
    stride: 1
    weight_filler {
      type: "msra"
    }
    bias_filler {
      type: "constant"
      value: 0
    }
  }
}
layer {
  name: "BatchNorm20"
  type: "BatchNorm"
  bottom: "Convolution20"
  top: "Convolution20"
  param {
    lr_mult: 0
    decay_mult: 0
  }
  param {
    lr_mult: 0
    decay_mult: 0
  }
  param {
    lr_mult: 0
    decay_mult: 0
  }
}
layer {
  name: "Scale20"
  type: "Scale"
  bottom: "Convolution20"
  top: "Convolution20"
  scale_param {
    bias_term: true
  }
}
layer {
  name: "Eltwise9"
  type: "Eltwise"
  bottom: "Eltwise8"
  bottom: "Convolution20"
  top: "Eltwise9"
  eltwise_param {
    operation: SUM
  }
}
layer {
  name: "ReLU19"
  type: "ReLU"
  bottom: "Eltwise9"
  top: "Eltwise9"
}
layer {
  name: "Convolution23"
  type: "Convolution"
  bottom: "Eltwise9"
  top: "Convolution23"
  param {
    lr_mult: 1
    decay_mult: 1
  }
  param {
    lr_mult: 2
    decay_mult: 0
  }
  convolution_param {
    num_output: 640
    pad: 0
    kernel_size: 1
    stride: 2
    weight_filler {
      type: "msra"
    }
    bias_filler {
      type: "constant"
      value: 0
    }
  }
}
layer {
  name: "BatchNorm23"
  type: "BatchNorm"
  bottom: "Convolution23"
  top: "Convolution23"
  param {
    lr_mult: 0
    decay_mult: 0
  }
  param {
    lr_mult: 0
    decay_mult: 0
  }
  param {
    lr_mult: 0
    decay_mult: 0
  }
}
layer {
  name: "Scale23"
  type: "Scale"
  bottom: "Convolution23"
  top: "Convolution23"
  scale_param {
    bias_term: true
  }
}
layer {
  name: "Convolution24"
  type: "Convolution"
  bottom: "Eltwise9"
  top: "Convolution24"
  param {
    lr_mult: 1
    decay_mult: 1
  }
  param {
    lr_mult: 2
    decay_mult: 0
  }
  convolution_param {
    num_output: 640
    pad: 1
    kernel_size: 3
    stride: 2
    weight_filler {
      type: "msra"
    }
    bias_filler {
      type: "constant"
      value: 0
    }
  }
}
layer {
  name: "BatchNorm24"
  type: "BatchNorm"
  bottom: "Convolution24"
  top: "Convolution24"
  param {
    lr_mult: 0
    decay_mult: 0
  }
  param {
    lr_mult: 0
    decay_mult: 0
  }
  param {
    lr_mult: 0
    decay_mult: 0
  }
}
layer {
  name: "Scale24"
  type: "Scale"
  bottom: "Convolution24"
  top: "Convolution24"
  scale_param {
    bias_term: true
  }
}
layer {
  name: "ReLU22"
  type: "ReLU"
  bottom: "Convolution24"
  top: "Convolution24"
}
layer {
  name: "Convolution25"
  type: "Convolution"
  bottom: "Convolution24"
  top: "Convolution25"
  param {
    lr_mult: 1
    decay_mult: 1
  }
  param {
    lr_mult: 2
    decay_mult: 0
  }
  convolution_param {
    num_output: 640
    pad: 1
    kernel_size: 3
    stride: 1
    weight_filler {
      type: "msra"
    }
    bias_filler {
      type: "constant"
      value: 0
    }
  }
}
layer {
  name: "BatchNorm25"
  type: "BatchNorm"
  bottom: "Convolution25"
  top: "Convolution25"
  param {
    lr_mult: 0
    decay_mult: 0
  }
  param {
    lr_mult: 0
    decay_mult: 0
  }
  param {
    lr_mult: 0
    decay_mult: 0
  }
}
layer {
  name: "Scale25"
  type: "Scale"
  bottom: "Convolution25"
  top: "Convolution25"
  scale_param {
    bias_term: true
  }
}
layer {
  name: "Eltwise11"
  type: "Eltwise"
  bottom: "Convolution23"
  bottom: "Convolution25"
  top: "Eltwise11"
  eltwise_param {
    operation: SUM
  }
}
layer {
  name: "ReLU23"
  type: "ReLU"
  bottom: "Eltwise11"
  top: "Eltwise11"
}
layer {
  name: "Convolution26"
  type: "Convolution"
  bottom: "Eltwise11"
  top: "Convolution26"
  param {
    lr_mult: 1
    decay_mult: 1
  }
  param {
    lr_mult: 2
    decay_mult: 0
  }
  convolution_param {
    num_output: 640
    pad: 1
    kernel_size: 3
    stride: 1
    weight_filler {
      type: "msra"
    }
    bias_filler {
      type: "constant"
      value: 0
    }
  }
}
layer {
  name: "BatchNorm26"
  type: "BatchNorm"
  bottom: "Convolution26"
  top: "Convolution26"
  param {
    lr_mult: 0
    decay_mult: 0
  }
  param {
    lr_mult: 0
    decay_mult: 0
  }
  param {
    lr_mult: 0
    decay_mult: 0
  }
}
layer {
  name: "Scale26"
  type: "Scale"
  bottom: "Convolution26"
  top: "Convolution26"
  scale_param {
    bias_term: true
  }
}
layer {
  name: "ReLU24"
  type: "ReLU"
  bottom: "Convolution26"
  top: "Convolution26"
}
layer {
  name: "Convolution27"
  type: "Convolution"
  bottom: "Convolution26"
  top: "Convolution27"
  param {
    lr_mult: 1
    decay_mult: 1
  }
  param {
    lr_mult: 2
    decay_mult: 0
  }
  convolution_param {
    num_output: 640
    pad: 1
    kernel_size: 3
    stride: 1
    weight_filler {
      type: "msra"
    }
    bias_filler {
      type: "constant"
      value: 0
    }
  }
}
layer {
  name: "BatchNorm27"
  type: "BatchNorm"
  bottom: "Convolution27"
  top: "Convolution27"
  param {
    lr_mult: 0
    decay_mult: 0
  }
  param {
    lr_mult: 0
    decay_mult: 0
  }
  param {
    lr_mult: 0
    decay_mult: 0
  }
}
layer {
  name: "Scale27"
  type: "Scale"
  bottom: "Convolution27"
  top: "Convolution27"
  scale_param {
    bias_term: true
  }
}
layer {
  name: "Eltwise12"
  type: "Eltwise"
  bottom: "Eltwise11"
  bottom: "Convolution27"
  top: "Eltwise12"
  eltwise_param {
    operation: SUM
  }
}
layer {
  name: "ReLU25"
  type: "ReLU"
  bottom: "Eltwise12"
  top: "Eltwise12"
}
layer {
  name: "Convolution28"
  type: "Convolution"
  bottom: "Eltwise12"
  top: "Convolution28"
  param {
    lr_mult: 1
    decay_mult: 1
  }
  param {
    lr_mult: 2
    decay_mult: 0
  }
  convolution_param {
    num_output: 640
    pad: 1
    kernel_size: 3
    stride: 1
    weight_filler {
      type: "msra"
    }
    bias_filler {
      type: "constant"
      value: 0
    }
  }
}
layer {
  name: "BatchNorm28"
  type: "BatchNorm"
  bottom: "Convolution28"
  top: "Convolution28"
  param {
    lr_mult: 0
    decay_mult: 0
  }
  param {
    lr_mult: 0
    decay_mult: 0
  }
  param {
    lr_mult: 0
    decay_mult: 0
  }
}
layer {
  name: "Scale28"
  type: "Scale"
  bottom: "Convolution28"
  top: "Convolution28"
  scale_param {
    bias_term: true
  }
}
layer {
  name: "ReLU26"
  type: "ReLU"
  bottom: "Convolution28"
  top: "Convolution28"
}
layer {
  name: "Convolution29"
  type: "Convolution"
  bottom: "Convolution28"
  top: "Convolution29"
  param {
    lr_mult: 1
    decay_mult: 1
  }
  param {
    lr_mult: 2
    decay_mult: 0
  }
  convolution_param {
    num_output: 640
    pad: 1
    kernel_size: 3
    stride: 1
    weight_filler {
      type: "msra"
    }
    bias_filler {
      type: "constant"
      value: 0
    }
  }
}
layer {
  name: "BatchNorm29"
  type: "BatchNorm"
  bottom: "Convolution29"
  top: "Convolution29"
  param {
    lr_mult: 0
    decay_mult: 0
  }
  param {
    lr_mult: 0
    decay_mult: 0
  }
  param {
    lr_mult: 0
    decay_mult: 0
  }
}
layer {
  name: "Scale29"
  type: "Scale"
  bottom: "Convolution29"
  top: "Convolution29"
  scale_param {
    bias_term: true
  }
}
layer {
  name: "Eltwise13"
  type: "Eltwise"
  bottom: "Eltwise12"
  bottom: "Convolution29"
  top: "Eltwise13"
  eltwise_param {
    operation: SUM
  }
}
layer {
  name: "ReLU27"
  type: "ReLU"
  bottom: "Eltwise13"
  top: "Eltwise13"
}
layer {
  name: "Convolution30"
  type: "Convolution"
  bottom: "Eltwise13"
  top: "Convolution30"
  param {
    lr_mult: 1
    decay_mult: 1
  }
  param {
    lr_mult: 2
    decay_mult: 0
  }
  convolution_param {
    num_output: 640
    pad: 1
    kernel_size: 3
    stride: 1
    weight_filler {
      type: "msra"
    }
    bias_filler {
      type: "constant"
      value: 0
    }
  }
}
layer {
  name: "BatchNorm30"
  type: "BatchNorm"
  bottom: "Convolution30"
  top: "Convolution30"
  param {
    lr_mult: 0
    decay_mult: 0
  }
  param {
    lr_mult: 0
    decay_mult: 0
  }
  param {
    lr_mult: 0
    decay_mult: 0
  }
}
layer {
  name: "Scale30"
  type: "Scale"
  bottom: "Convolution30"
  top: "Convolution30"
  scale_param {
    bias_term: true
  }
}
layer {
  name: "ReLU28"
  type: "ReLU"
  bottom: "Convolution30"
  top: "Convolution30"
}
layer {
  name: "Convolution31"
  type: "Convolution"
  bottom: "Convolution30"
  top: "Convolution31"
  param {
    lr_mult: 1
    decay_mult: 1
  }
  param {
    lr_mult: 2
    decay_mult: 0
  }
  convolution_param {
    num_output: 640
    pad: 1
    kernel_size: 3
    stride: 1
    weight_filler {
      type: "msra"
    }
    bias_filler {
      type: "constant"
      value: 0
    }
  }
}
layer {
  name: "BatchNorm31"
  type: "BatchNorm"
  bottom: "Convolution31"
  top: "Convolution31"
  param {
    lr_mult: 0
    decay_mult: 0
  }
  param {
    lr_mult: 0
    decay_mult: 0
  }
  param {
    lr_mult: 0
    decay_mult: 0
  }
}
layer {
  name: "Scale31"
  type: "Scale"
  bottom: "Convolution31"
  top: "Convolution31"
  scale_param {
    bias_term: true
  }
}
layer {
  name: "Eltwise14"
  type: "Eltwise"
  bottom: "Eltwise13"
  bottom: "Convolution31"
  top: "Eltwise14"
  eltwise_param {
    operation: SUM
  }
}
layer {
  name: "ReLU29"
  type: "ReLU"
  bottom: "Eltwise14"
  top: "Eltwise14"
}
layer {
  name: "Pooling1"
  type: "Pooling"
  bottom: "Eltwise14"
  top: "Pooling1"
  pooling_param {
    pool: AVE
    global_pooling: true
  }
}
layer {
  name: "InnerProduct1"
  type: "InnerProduct"
  bottom: "Pooling1"
  top: "InnerProduct1"
  param {
    lr_mult: 1
    decay_mult: 1
  }
  param {
    lr_mult: 2
    decay_mult: 1
  }
  inner_product_param {
    num_output: 10
    weight_filler {
      type: "msra"
    }
    bias_filler {
      type: "constant"
      value: 0
    }
  }
}
layer {
  name: "SoftmaxWithLoss1"
  type: "SoftmaxWithLoss"
  bottom: "InnerProduct1"
  bottom: "Data2"
  top: "SoftmaxWithLoss1"
}
layer {
  name: "Accuracy1"
  type: "Accuracy"
  bottom: "InnerProduct1"
  bottom: "Data2"
  top: "Accuracy1"
  include {
    phase: TEST
  }
}
I0129 22:47:03.805239  7239 layer_factory.hpp:77] Creating layer Data1
I0129 22:47:03.805286  7239 db_lmdb.cpp:35] Opened lmdb data/cifar10/cifar10_pad4_test_lmdb
I0129 22:47:03.805299  7239 net.cpp:84] Creating Layer Data1
I0129 22:47:03.805305  7239 net.cpp:380] Data1 -> Data1
I0129 22:47:03.805316  7239 net.cpp:380] Data1 -> Data2
I0129 22:47:03.805321  7239 data_transformer.cpp:25] Loading mean file from: data/cifar10/pad4_mean.binaryproto
I0129 22:47:03.805465  7239 data_layer.cpp:45] output data size: 50,3,32,32
I0129 22:47:03.806929  7239 net.cpp:122] Setting up Data1
I0129 22:47:03.806941  7239 net.cpp:129] Top shape: 50 3 32 32 (153600)
I0129 22:47:03.806944  7239 net.cpp:129] Top shape: 50 (50)
I0129 22:47:03.806946  7239 net.cpp:137] Memory required for data: 614600
I0129 22:47:03.806949  7239 layer_factory.hpp:77] Creating layer Data2_Data1_1_split
I0129 22:47:03.806955  7239 net.cpp:84] Creating Layer Data2_Data1_1_split
I0129 22:47:03.806958  7239 net.cpp:406] Data2_Data1_1_split <- Data2
I0129 22:47:03.806963  7239 net.cpp:380] Data2_Data1_1_split -> Data2_Data1_1_split_0
I0129 22:47:03.806969  7239 net.cpp:380] Data2_Data1_1_split -> Data2_Data1_1_split_1
I0129 22:47:03.807011  7239 net.cpp:122] Setting up Data2_Data1_1_split
I0129 22:47:03.807016  7239 net.cpp:129] Top shape: 50 (50)
I0129 22:47:03.807018  7239 net.cpp:129] Top shape: 50 (50)
I0129 22:47:03.807021  7239 net.cpp:137] Memory required for data: 615000
I0129 22:47:03.807024  7239 layer_factory.hpp:77] Creating layer Convolution1
I0129 22:47:03.807031  7239 net.cpp:84] Creating Layer Convolution1
I0129 22:47:03.807034  7239 net.cpp:406] Convolution1 <- Data1
I0129 22:47:03.807039  7239 net.cpp:380] Convolution1 -> Convolution1
I0129 22:47:03.808020  7239 net.cpp:122] Setting up Convolution1
I0129 22:47:03.808032  7239 net.cpp:129] Top shape: 50 160 32 32 (8192000)
I0129 22:47:03.808033  7239 net.cpp:137] Memory required for data: 33383000
I0129 22:47:03.808042  7239 layer_factory.hpp:77] Creating layer BatchNorm1
I0129 22:47:03.808048  7239 net.cpp:84] Creating Layer BatchNorm1
I0129 22:47:03.808050  7239 net.cpp:406] BatchNorm1 <- Convolution1
I0129 22:47:03.808054  7239 net.cpp:367] BatchNorm1 -> Convolution1 (in-place)
I0129 22:47:03.808219  7239 net.cpp:122] Setting up BatchNorm1
I0129 22:47:03.808224  7239 net.cpp:129] Top shape: 50 160 32 32 (8192000)
I0129 22:47:03.808226  7239 net.cpp:137] Memory required for data: 66151000
I0129 22:47:03.808233  7239 layer_factory.hpp:77] Creating layer Scale1
I0129 22:47:03.808240  7239 net.cpp:84] Creating Layer Scale1
I0129 22:47:03.808243  7239 net.cpp:406] Scale1 <- Convolution1
I0129 22:47:03.808245  7239 net.cpp:367] Scale1 -> Convolution1 (in-place)
I0129 22:47:03.808279  7239 layer_factory.hpp:77] Creating layer Scale1
I0129 22:47:03.808373  7239 net.cpp:122] Setting up Scale1
I0129 22:47:03.808378  7239 net.cpp:129] Top shape: 50 160 32 32 (8192000)
I0129 22:47:03.808380  7239 net.cpp:137] Memory required for data: 98919000
I0129 22:47:03.808384  7239 layer_factory.hpp:77] Creating layer ReLU1
I0129 22:47:03.808390  7239 net.cpp:84] Creating Layer ReLU1
I0129 22:47:03.808393  7239 net.cpp:406] ReLU1 <- Convolution1
I0129 22:47:03.808396  7239 net.cpp:367] ReLU1 -> Convolution1 (in-place)
I0129 22:47:03.809054  7239 net.cpp:122] Setting up ReLU1
I0129 22:47:03.809065  7239 net.cpp:129] Top shape: 50 160 32 32 (8192000)
I0129 22:47:03.809068  7239 net.cpp:137] Memory required for data: 131687000
I0129 22:47:03.809070  7239 layer_factory.hpp:77] Creating layer Convolution1_ReLU1_0_split
I0129 22:47:03.809077  7239 net.cpp:84] Creating Layer Convolution1_ReLU1_0_split
I0129 22:47:03.809080  7239 net.cpp:406] Convolution1_ReLU1_0_split <- Convolution1
I0129 22:47:03.809084  7239 net.cpp:380] Convolution1_ReLU1_0_split -> Convolution1_ReLU1_0_split_0
I0129 22:47:03.809089  7239 net.cpp:380] Convolution1_ReLU1_0_split -> Convolution1_ReLU1_0_split_1
I0129 22:47:03.809165  7239 net.cpp:122] Setting up Convolution1_ReLU1_0_split
I0129 22:47:03.809171  7239 net.cpp:129] Top shape: 50 160 32 32 (8192000)
I0129 22:47:03.809175  7239 net.cpp:129] Top shape: 50 160 32 32 (8192000)
I0129 22:47:03.809190  7239 net.cpp:137] Memory required for data: 197223000
I0129 22:47:03.809191  7239 layer_factory.hpp:77] Creating layer Convolution2
I0129 22:47:03.809200  7239 net.cpp:84] Creating Layer Convolution2
I0129 22:47:03.809211  7239 net.cpp:406] Convolution2 <- Convolution1_ReLU1_0_split_0
I0129 22:47:03.809218  7239 net.cpp:380] Convolution2 -> Convolution2
I0129 22:47:03.812995  7239 net.cpp:122] Setting up Convolution2
I0129 22:47:03.813009  7239 net.cpp:129] Top shape: 50 160 32 32 (8192000)
I0129 22:47:03.813011  7239 net.cpp:137] Memory required for data: 229991000
I0129 22:47:03.813019  7239 layer_factory.hpp:77] Creating layer BatchNorm2
I0129 22:47:03.813025  7239 net.cpp:84] Creating Layer BatchNorm2
I0129 22:47:03.813030  7239 net.cpp:406] BatchNorm2 <- Convolution2
I0129 22:47:03.813036  7239 net.cpp:367] BatchNorm2 -> Convolution2 (in-place)
I0129 22:47:03.813275  7239 net.cpp:122] Setting up BatchNorm2
I0129 22:47:03.813282  7239 net.cpp:129] Top shape: 50 160 32 32 (8192000)
I0129 22:47:03.813284  7239 net.cpp:137] Memory required for data: 262759000
I0129 22:47:03.813290  7239 layer_factory.hpp:77] Creating layer Scale2
I0129 22:47:03.813302  7239 net.cpp:84] Creating Layer Scale2
I0129 22:47:03.813303  7239 net.cpp:406] Scale2 <- Convolution2
I0129 22:47:03.813308  7239 net.cpp:367] Scale2 -> Convolution2 (in-place)
I0129 22:47:03.813343  7239 layer_factory.hpp:77] Creating layer Scale2
I0129 22:47:03.813436  7239 net.cpp:122] Setting up Scale2
I0129 22:47:03.813443  7239 net.cpp:129] Top shape: 50 160 32 32 (8192000)
I0129 22:47:03.813446  7239 net.cpp:137] Memory required for data: 295527000
I0129 22:47:03.813450  7239 layer_factory.hpp:77] Creating layer ReLU2
I0129 22:47:03.813454  7239 net.cpp:84] Creating Layer ReLU2
I0129 22:47:03.813457  7239 net.cpp:406] ReLU2 <- Convolution2
I0129 22:47:03.813460  7239 net.cpp:367] ReLU2 -> Convolution2 (in-place)
I0129 22:47:03.813608  7239 net.cpp:122] Setting up ReLU2
I0129 22:47:03.813616  7239 net.cpp:129] Top shape: 50 160 32 32 (8192000)
I0129 22:47:03.813618  7239 net.cpp:137] Memory required for data: 328295000
I0129 22:47:03.813621  7239 layer_factory.hpp:77] Creating layer Convolution3
I0129 22:47:03.813630  7239 net.cpp:84] Creating Layer Convolution3
I0129 22:47:03.813633  7239 net.cpp:406] Convolution3 <- Convolution2
I0129 22:47:03.813637  7239 net.cpp:380] Convolution3 -> Convolution3
I0129 22:47:03.816939  7239 net.cpp:122] Setting up Convolution3
I0129 22:47:03.816951  7239 net.cpp:129] Top shape: 50 160 32 32 (8192000)
I0129 22:47:03.816953  7239 net.cpp:137] Memory required for data: 361063000
I0129 22:47:03.816959  7239 layer_factory.hpp:77] Creating layer BatchNorm3
I0129 22:47:03.816965  7239 net.cpp:84] Creating Layer BatchNorm3
I0129 22:47:03.816968  7239 net.cpp:406] BatchNorm3 <- Convolution3
I0129 22:47:03.816972  7239 net.cpp:367] BatchNorm3 -> Convolution3 (in-place)
I0129 22:47:03.817145  7239 net.cpp:122] Setting up BatchNorm3
I0129 22:47:03.817152  7239 net.cpp:129] Top shape: 50 160 32 32 (8192000)
I0129 22:47:03.817154  7239 net.cpp:137] Memory required for data: 393831000
I0129 22:47:03.817162  7239 layer_factory.hpp:77] Creating layer Scale3
I0129 22:47:03.817167  7239 net.cpp:84] Creating Layer Scale3
I0129 22:47:03.817170  7239 net.cpp:406] Scale3 <- Convolution3
I0129 22:47:03.817174  7239 net.cpp:367] Scale3 -> Convolution3 (in-place)
I0129 22:47:03.817209  7239 layer_factory.hpp:77] Creating layer Scale3
I0129 22:47:03.817304  7239 net.cpp:122] Setting up Scale3
I0129 22:47:03.817312  7239 net.cpp:129] Top shape: 50 160 32 32 (8192000)
I0129 22:47:03.817313  7239 net.cpp:137] Memory required for data: 426599000
I0129 22:47:03.817317  7239 layer_factory.hpp:77] Creating layer Eltwise1
I0129 22:47:03.817322  7239 net.cpp:84] Creating Layer Eltwise1
I0129 22:47:03.817324  7239 net.cpp:406] Eltwise1 <- Convolution1_ReLU1_0_split_1
I0129 22:47:03.817327  7239 net.cpp:406] Eltwise1 <- Convolution3
I0129 22:47:03.817332  7239 net.cpp:380] Eltwise1 -> Eltwise1
I0129 22:47:03.817350  7239 net.cpp:122] Setting up Eltwise1
I0129 22:47:03.817358  7239 net.cpp:129] Top shape: 50 160 32 32 (8192000)
I0129 22:47:03.817359  7239 net.cpp:137] Memory required for data: 459367000
I0129 22:47:03.817361  7239 layer_factory.hpp:77] Creating layer ReLU3
I0129 22:47:03.817374  7239 net.cpp:84] Creating Layer ReLU3
I0129 22:47:03.817378  7239 net.cpp:406] ReLU3 <- Eltwise1
I0129 22:47:03.817381  7239 net.cpp:367] ReLU3 -> Eltwise1 (in-place)
I0129 22:47:03.817539  7239 net.cpp:122] Setting up ReLU3
I0129 22:47:03.817546  7239 net.cpp:129] Top shape: 50 160 32 32 (8192000)
I0129 22:47:03.817549  7239 net.cpp:137] Memory required for data: 492135000
I0129 22:47:03.817553  7239 layer_factory.hpp:77] Creating layer Eltwise1_ReLU3_0_split
I0129 22:47:03.817559  7239 net.cpp:84] Creating Layer Eltwise1_ReLU3_0_split
I0129 22:47:03.817562  7239 net.cpp:406] Eltwise1_ReLU3_0_split <- Eltwise1
I0129 22:47:03.817566  7239 net.cpp:380] Eltwise1_ReLU3_0_split -> Eltwise1_ReLU3_0_split_0
I0129 22:47:03.817571  7239 net.cpp:380] Eltwise1_ReLU3_0_split -> Eltwise1_ReLU3_0_split_1
I0129 22:47:03.817605  7239 net.cpp:122] Setting up Eltwise1_ReLU3_0_split
I0129 22:47:03.817610  7239 net.cpp:129] Top shape: 50 160 32 32 (8192000)
I0129 22:47:03.817615  7239 net.cpp:129] Top shape: 50 160 32 32 (8192000)
I0129 22:47:03.817616  7239 net.cpp:137] Memory required for data: 557671000
I0129 22:47:03.817618  7239 layer_factory.hpp:77] Creating layer Convolution4
I0129 22:47:03.817625  7239 net.cpp:84] Creating Layer Convolution4
I0129 22:47:03.817627  7239 net.cpp:406] Convolution4 <- Eltwise1_ReLU3_0_split_0
I0129 22:47:03.817631  7239 net.cpp:380] Convolution4 -> Convolution4
I0129 22:47:03.821280  7239 net.cpp:122] Setting up Convolution4
I0129 22:47:03.821295  7239 net.cpp:129] Top shape: 50 160 32 32 (8192000)
I0129 22:47:03.821298  7239 net.cpp:137] Memory required for data: 590439000
I0129 22:47:03.821303  7239 layer_factory.hpp:77] Creating layer BatchNorm4
I0129 22:47:03.821308  7239 net.cpp:84] Creating Layer BatchNorm4
I0129 22:47:03.821311  7239 net.cpp:406] BatchNorm4 <- Convolution4
I0129 22:47:03.821316  7239 net.cpp:367] BatchNorm4 -> Convolution4 (in-place)
I0129 22:47:03.821491  7239 net.cpp:122] Setting up BatchNorm4
I0129 22:47:03.821496  7239 net.cpp:129] Top shape: 50 160 32 32 (8192000)
I0129 22:47:03.821498  7239 net.cpp:137] Memory required for data: 623207000
I0129 22:47:03.821504  7239 layer_factory.hpp:77] Creating layer Scale4
I0129 22:47:03.821508  7239 net.cpp:84] Creating Layer Scale4
I0129 22:47:03.821511  7239 net.cpp:406] Scale4 <- Convolution4
I0129 22:47:03.821513  7239 net.cpp:367] Scale4 -> Convolution4 (in-place)
I0129 22:47:03.821547  7239 layer_factory.hpp:77] Creating layer Scale4
I0129 22:47:03.821645  7239 net.cpp:122] Setting up Scale4
I0129 22:47:03.821651  7239 net.cpp:129] Top shape: 50 160 32 32 (8192000)
I0129 22:47:03.821653  7239 net.cpp:137] Memory required for data: 655975000
I0129 22:47:03.821657  7239 layer_factory.hpp:77] Creating layer ReLU4
I0129 22:47:03.821662  7239 net.cpp:84] Creating Layer ReLU4
I0129 22:47:03.821665  7239 net.cpp:406] ReLU4 <- Convolution4
I0129 22:47:03.821668  7239 net.cpp:367] ReLU4 -> Convolution4 (in-place)
I0129 22:47:03.821810  7239 net.cpp:122] Setting up ReLU4
I0129 22:47:03.821817  7239 net.cpp:129] Top shape: 50 160 32 32 (8192000)
I0129 22:47:03.821820  7239 net.cpp:137] Memory required for data: 688743000
I0129 22:47:03.821822  7239 layer_factory.hpp:77] Creating layer Convolution5
I0129 22:47:03.821830  7239 net.cpp:84] Creating Layer Convolution5
I0129 22:47:03.821833  7239 net.cpp:406] Convolution5 <- Convolution4
I0129 22:47:03.821837  7239 net.cpp:380] Convolution5 -> Convolution5
I0129 22:47:03.824731  7239 net.cpp:122] Setting up Convolution5
I0129 22:47:03.824743  7239 net.cpp:129] Top shape: 50 160 32 32 (8192000)
I0129 22:47:03.824746  7239 net.cpp:137] Memory required for data: 721511000
I0129 22:47:03.824751  7239 layer_factory.hpp:77] Creating layer BatchNorm5
I0129 22:47:03.824757  7239 net.cpp:84] Creating Layer BatchNorm5
I0129 22:47:03.824760  7239 net.cpp:406] BatchNorm5 <- Convolution5
I0129 22:47:03.824764  7239 net.cpp:367] BatchNorm5 -> Convolution5 (in-place)
I0129 22:47:03.824937  7239 net.cpp:122] Setting up BatchNorm5
I0129 22:47:03.824944  7239 net.cpp:129] Top shape: 50 160 32 32 (8192000)
I0129 22:47:03.824955  7239 net.cpp:137] Memory required for data: 754279000
I0129 22:47:03.824964  7239 layer_factory.hpp:77] Creating layer Scale5
I0129 22:47:03.824970  7239 net.cpp:84] Creating Layer Scale5
I0129 22:47:03.824973  7239 net.cpp:406] Scale5 <- Convolution5
I0129 22:47:03.824978  7239 net.cpp:367] Scale5 -> Convolution5 (in-place)
I0129 22:47:03.825014  7239 layer_factory.hpp:77] Creating layer Scale5
I0129 22:47:03.825114  7239 net.cpp:122] Setting up Scale5
I0129 22:47:03.825119  7239 net.cpp:129] Top shape: 50 160 32 32 (8192000)
I0129 22:47:03.825121  7239 net.cpp:137] Memory required for data: 787047000
I0129 22:47:03.825125  7239 layer_factory.hpp:77] Creating layer Eltwise2
I0129 22:47:03.825130  7239 net.cpp:84] Creating Layer Eltwise2
I0129 22:47:03.825134  7239 net.cpp:406] Eltwise2 <- Eltwise1_ReLU3_0_split_1
I0129 22:47:03.825136  7239 net.cpp:406] Eltwise2 <- Convolution5
I0129 22:47:03.825140  7239 net.cpp:380] Eltwise2 -> Eltwise2
I0129 22:47:03.825161  7239 net.cpp:122] Setting up Eltwise2
I0129 22:47:03.825166  7239 net.cpp:129] Top shape: 50 160 32 32 (8192000)
I0129 22:47:03.825168  7239 net.cpp:137] Memory required for data: 819815000
I0129 22:47:03.825170  7239 layer_factory.hpp:77] Creating layer ReLU5
I0129 22:47:03.825175  7239 net.cpp:84] Creating Layer ReLU5
I0129 22:47:03.825177  7239 net.cpp:406] ReLU5 <- Eltwise2
I0129 22:47:03.825181  7239 net.cpp:367] ReLU5 -> Eltwise2 (in-place)
I0129 22:47:03.825325  7239 net.cpp:122] Setting up ReLU5
I0129 22:47:03.825332  7239 net.cpp:129] Top shape: 50 160 32 32 (8192000)
I0129 22:47:03.825335  7239 net.cpp:137] Memory required for data: 852583000
I0129 22:47:03.825337  7239 layer_factory.hpp:77] Creating layer Eltwise2_ReLU5_0_split
I0129 22:47:03.825341  7239 net.cpp:84] Creating Layer Eltwise2_ReLU5_0_split
I0129 22:47:03.825343  7239 net.cpp:406] Eltwise2_ReLU5_0_split <- Eltwise2
I0129 22:47:03.825348  7239 net.cpp:380] Eltwise2_ReLU5_0_split -> Eltwise2_ReLU5_0_split_0
I0129 22:47:03.825356  7239 net.cpp:380] Eltwise2_ReLU5_0_split -> Eltwise2_ReLU5_0_split_1
I0129 22:47:03.825393  7239 net.cpp:122] Setting up Eltwise2_ReLU5_0_split
I0129 22:47:03.825398  7239 net.cpp:129] Top shape: 50 160 32 32 (8192000)
I0129 22:47:03.825402  7239 net.cpp:129] Top shape: 50 160 32 32 (8192000)
I0129 22:47:03.825403  7239 net.cpp:137] Memory required for data: 918119000
I0129 22:47:03.825405  7239 layer_factory.hpp:77] Creating layer Convolution6
I0129 22:47:03.825413  7239 net.cpp:84] Creating Layer Convolution6
I0129 22:47:03.825417  7239 net.cpp:406] Convolution6 <- Eltwise2_ReLU5_0_split_0
I0129 22:47:03.825422  7239 net.cpp:380] Convolution6 -> Convolution6
I0129 22:47:03.829048  7239 net.cpp:122] Setting up Convolution6
I0129 22:47:03.829061  7239 net.cpp:129] Top shape: 50 160 32 32 (8192000)
I0129 22:47:03.829063  7239 net.cpp:137] Memory required for data: 950887000
I0129 22:47:03.829069  7239 layer_factory.hpp:77] Creating layer BatchNorm6
I0129 22:47:03.829077  7239 net.cpp:84] Creating Layer BatchNorm6
I0129 22:47:03.829080  7239 net.cpp:406] BatchNorm6 <- Convolution6
I0129 22:47:03.829085  7239 net.cpp:367] BatchNorm6 -> Convolution6 (in-place)
I0129 22:47:03.829262  7239 net.cpp:122] Setting up BatchNorm6
I0129 22:47:03.829267  7239 net.cpp:129] Top shape: 50 160 32 32 (8192000)
I0129 22:47:03.829269  7239 net.cpp:137] Memory required for data: 983655000
I0129 22:47:03.829274  7239 layer_factory.hpp:77] Creating layer Scale6
I0129 22:47:03.829280  7239 net.cpp:84] Creating Layer Scale6
I0129 22:47:03.829282  7239 net.cpp:406] Scale6 <- Convolution6
I0129 22:47:03.829286  7239 net.cpp:367] Scale6 -> Convolution6 (in-place)
I0129 22:47:03.829320  7239 layer_factory.hpp:77] Creating layer Scale6
I0129 22:47:03.829418  7239 net.cpp:122] Setting up Scale6
…
I0129 22:47:03.849014  7239 net.cpp:129] Top shape: 50 160 32 32 (8192000)
I0129 22:47:03.849016  7239 net.cpp:137] Memory required for data: 1868391000
I0129 22:47:03.849020  7239 layer_factory.hpp:77] Creating layer Eltwise5
I0129 22:47:03.849025  7239 net.cpp:84] Creating Layer Eltwise5
I0129 22:47:03.849028  7239 net.cpp:406] Eltwise5 <- Eltwise4_ReLU9_0_split_1
I0129 22:47:03.849031  7239 net.cpp:406] Eltwise5 <- Convolution11
I0129 22:47:03.849035  7239 net.cpp:380] Eltwise5 -> Eltwise5
I0129 22:47:03.849056  7239 net.cpp:122] Setting up Eltwise5
I0129 22:47:03.849062  7239 net.cpp:129] Top shape: 50 160 32 32 (8192000)
I0129 22:47:03.849066  7239 net.cpp:137] Memory required for data: 1901159000
I0129 22:47:03.849067  7239 layer_factory.hpp:77] Creating layer ReLU11
I0129 22:47:03.849071  7239 net.cpp:84] Creating Layer ReLU11
I0129 22:47:03.849073  7239 net.cpp:406] ReLU11 <- Eltwise5
I0129 22:47:03.849077  7239 net.cpp:367] ReLU11 -> Eltwise5 (in-place)
I0129 22:47:03.849225  7239 net.cpp:122] Setting up ReLU11
I0129 22:47:03.849233  7239 net.cpp:129] Top shape: 50 160 32 32 (8192000)
I0129 22:47:03.849236  7239 net.cpp:137] Memory required for data: 1933927000
I0129 22:47:03.849237  7239 layer_factory.hpp:77] Creating layer Eltwise5_ReLU11_0_split
I0129 22:47:03.849243  7239 net.cpp:84] Creating Layer Eltwise5_ReLU11_0_split
I0129 22:47:03.849246  7239 net.cpp:406] Eltwise5_ReLU11_0_split <- Eltwise5
I0129 22:47:03.849251  7239 net.cpp:380] Eltwise5_ReLU11_0_split -> Eltwise5_ReLU11_0_split_0
I0129 22:47:03.849256  7239 net.cpp:380] Eltwise5_ReLU11_0_split -> Eltwise5_ReLU11_0_split_1
I0129 22:47:03.849292  7239 net.cpp:122] Setting up Eltwise5_ReLU11_0_split
I0129 22:47:03.849298  7239 net.cpp:129] Top shape: 50 160 32 32 (8192000)
I0129 22:47:03.849300  7239 net.cpp:129] Top shape: 50 160 32 32 (8192000)
I0129 22:47:03.849303  7239 net.cpp:137] Memory required for data: 1999463000
I0129 22:47:03.849304  7239 layer_factory.hpp:77] Creating layer Convolution12
I0129 22:47:03.849311  7239 net.cpp:84] Creating Layer Convolution12
I0129 22:47:03.849314  7239 net.cpp:406] Convolution12 <- Eltwise5_ReLU11_0_split_0
I0129 22:47:03.849319  7239 net.cpp:380] Convolution12 -> Convolution12
I0129 22:47:03.850692  7239 net.cpp:122] Setting up Convolution12
I0129 22:47:03.850703  7239 net.cpp:129] Top shape: 50 320 16 16 (4096000)
I0129 22:47:03.850706  7239 net.cpp:137] Memory required for data: 2015847000
I0129 22:47:03.850710  7239 layer_factory.hpp:77] Creating layer BatchNorm12
I0129 22:47:03.850718  7239 net.cpp:84] Creating Layer BatchNorm12
I0129 22:47:03.850726  7239 net.cpp:406] BatchNorm12 <- Convolution12
I0129 22:47:03.850731  7239 net.cpp:367] BatchNorm12 -> Convolution12 (in-place)
I0129 22:47:03.850915  7239 net.cpp:122] Setting up BatchNorm12
I0129 22:47:03.850921  7239 net.cpp:129] Top shape: 50 320 16 16 (4096000)
I0129 22:47:03.850924  7239 net.cpp:137] Memory required for data: 2032231000
I0129 22:47:03.850929  7239 layer_factory.hpp:77] Creating layer Scale12
I0129 22:47:03.850934  7239 net.cpp:84] Creating Layer Scale12
I0129 22:47:03.850937  7239 net.cpp:406] Scale12 <- Convolution12
I0129 22:47:03.850940  7239 net.cpp:367] Scale12 -> Convolution12 (in-place)
I0129 22:47:03.850980  7239 layer_factory.hpp:77] Creating layer Scale12
I0129 22:47:03.851084  7239 net.cpp:122] Setting up Scale12
I0129 22:47:03.851090  7239 net.cpp:129] Top shape: 50 320 16 16 (4096000)
I0129 22:47:03.851092  7239 net.cpp:137] Memory required for data: 2048615000
I0129 22:47:03.851097  7239 layer_factory.hpp:77] Creating layer Convolution13
I0129 22:47:03.851104  7239 net.cpp:84] Creating Layer Convolution13
I0129 22:47:03.851107  7239 net.cpp:406] Convolution13 <- Eltwise5_ReLU11_0_split_1
I0129 22:47:03.851122  7239 net.cpp:380] Convolution13 -> Convolution13
I0129 22:47:03.856076  7239 net.cpp:122] Setting up Convolution13
I0129 22:47:03.856088  7239 net.cpp:129] Top shape: 50 320 16 16 (4096000)
I0129 22:47:03.856091  7239 net.cpp:137] Memory required for data: 2064999000
I0129 22:47:03.856096  7239 layer_factory.hpp:77] Creating layer BatchNorm13
I0129 22:47:03.856103  7239 net.cpp:84] Creating Layer BatchNorm13
I0129 22:47:03.856106  7239 net.cpp:406] BatchNorm13 <- Convolution13
I0129 22:47:03.856109  7239 net.cpp:367] BatchNorm13 -> Convolution13 (in-place)
I0129 22:47:03.856287  7239 net.cpp:122] Setting up BatchNorm13
I0129 22:47:03.856293  7239 net.cpp:129] Top shape: 50 320 16 16 (4096000)
I0129 22:47:03.856295  7239 net.cpp:137] Memory required for data: 2081383000
I0129 22:47:03.856300  7239 layer_factory.hpp:77] Creating layer Scale13
I0129 22:47:03.856305  7239 net.cpp:84] Creating Layer Scale13
I0129 22:47:03.856308  7239 net.cpp:406] Scale13 <- Convolution13
I0129 22:47:03.856312  7239 net.cpp:367] Scale13 -> Convolution13 (in-place)
I0129 22:47:03.856349  7239 layer_factory.hpp:77] Creating layer Scale13
I0129 22:47:03.856454  7239 net.cpp:122] Setting up Scale13
I0129 22:47:03.856461  7239 net.cpp:129] Top shape: 50 320 16 16 (4096000)
I0129 22:47:03.856463  7239 net.cpp:137] Memory required for data: 2097767000
I0129 22:47:03.856467  7239 layer_factory.hpp:77] Creating layer ReLU12
I0129 22:47:03.856470  7239 net.cpp:84] Creating Layer ReLU12
I0129 22:47:03.856473  7239 net.cpp:406] ReLU12 <- Convolution13
I0129 22:47:03.856477  7239 net.cpp:367] ReLU12 -> Convolution13 (in-place)
I0129 22:47:03.856947  7239 net.cpp:122] Setting up ReLU12
I0129 22:47:03.856959  7239 net.cpp:129] Top shape: 50 320 16 16 (4096000)
I0129 22:47:03.856962  7239 net.cpp:137] Memory required for data: 2114151000
I0129 22:47:03.856966  7239 layer_factory.hpp:77] Creating layer Convolution14
I0129 22:47:03.856977  7239 net.cpp:84] Creating Layer Convolution14
I0129 22:47:03.856981  7239 net.cpp:406] Convolution14 <- Convolution13
I0129 22:47:03.856986  7239 net.cpp:380] Convolution14 -> Convolution14
I0129 22:47:03.865483  7239 net.cpp:122] Setting up Convolution14
I0129 22:47:03.865495  7239 net.cpp:129] Top shape: 50 320 16 16 (4096000)
I0129 22:47:03.865497  7239 net.cpp:137] Memory required for data: 2130535000
I0129 22:47:03.865504  7239 layer_factory.hpp:77] Creating layer BatchNorm14
I0129 22:47:03.865509  7239 net.cpp:84] Creating Layer BatchNorm14
I0129 22:47:03.865512  7239 net.cpp:406] BatchNorm14 <- Convolution14
I0129 22:47:03.865516  7239 net.cpp:367] BatchNorm14 -> Convolution14 (in-place)
I0129 22:47:03.865701  7239 net.cpp:122] Setting up BatchNorm14
I0129 22:47:03.865708  7239 net.cpp:129] Top shape: 50 320 16 16 (4096000)
I0129 22:47:03.865710  7239 net.cpp:137] Memory required for data: 2146919000
I0129 22:47:03.865715  7239 layer_factory.hpp:77] Creating layer Scale14
I0129 22:47:03.865720  7239 net.cpp:84] Creating Layer Scale14
I0129 22:47:03.865722  7239 net.cpp:406] Scale14 <- Convolution14
I0129 22:47:03.865726  7239 net.cpp:367] Scale14 -> Convolution14 (in-place)
I0129 22:47:03.865764  7239 layer_factory.hpp:77] Creating layer Scale14
I0129 22:47:03.865871  7239 net.cpp:122] Setting up Scale14
I0129 22:47:03.865877  7239 net.cpp:129] Top shape: 50 320 16 16 (4096000)
I0129 22:47:03.865880  7239 net.cpp:137] Memory required for data: 2163303000
I0129 22:47:03.865882  7239 layer_factory.hpp:77] Creating layer Eltwise6
I0129 22:47:03.865887  7239 net.cpp:84] Creating Layer Eltwise6
I0129 22:47:03.865890  7239 net.cpp:406] Eltwise6 <- Convolution12
I0129 22:47:03.865892  7239 net.cpp:406] Eltwise6 <- Convolution14
I0129 22:47:03.865897  7239 net.cpp:380] Eltwise6 -> Eltwise6
I0129 22:47:03.865916  7239 net.cpp:122] Setting up Eltwise6
I0129 22:47:03.865921  7239 net.cpp:129] Top shape: 50 320 16 16 (4096000)
I0129 22:47:03.865923  7239 net.cpp:137] Memory required for data: 2179687000
I0129 22:47:03.865926  7239 layer_factory.hpp:77] Creating layer ReLU13
I0129 22:47:03.865931  7239 net.cpp:84] Creating Layer ReLU13
I0129 22:47:03.865941  7239 net.cpp:406] ReLU13 <- Eltwise6
I0129 22:47:03.865944  7239 net.cpp:367] ReLU13 -> Eltwise6 (in-place)
I0129 22:47:03.866427  7239 net.cpp:122] Setting up ReLU13
I0129 22:47:03.866438  7239 net.cpp:129] Top shape: 50 320 16 16 (4096000)
I0129 22:47:03.866441  7239 net.cpp:137] Memory required for data: 2196071000
I0129 22:47:03.866443  7239 layer_factory.hpp:77] Creating layer Eltwise6_ReLU13_0_split
I0129 22:47:03.866448  7239 net.cpp:84] Creating Layer Eltwise6_ReLU13_0_split
I0129 22:47:03.866452  7239 net.cpp:406] Eltwise6_ReLU13_0_split <- Eltwise6
I0129 22:47:03.866456  7239 net.cpp:380] Eltwise6_ReLU13_0_split -> Eltwise6_ReLU13_0_split_0
I0129 22:47:03.866461  7239 net.cpp:380] Eltwise6_ReLU13_0_split -> Eltwise6_ReLU13_0_split_1
I0129 22:47:03.866503  7239 net.cpp:122] Setting up Eltwise6_ReLU13_0_split
I0129 22:47:03.866508  7239 net.cpp:129] Top shape: 50 320 16 16 (4096000)
I0129 22:47:03.866510  7239 net.cpp:129] Top shape: 50 320 16 16 (4096000)
I0129 22:47:03.866513  7239 net.cpp:137] Memory required for data: 2228839000
I0129 22:47:03.866514  7239 layer_factory.hpp:77] Creating layer Convolution15
I0129 22:47:03.866523  7239 net.cpp:84] Creating Layer Convolution15
I0129 22:47:03.866526  7239 net.cpp:406] Convolution15 <- Eltwise6_ReLU13_0_split_0
I0129 22:47:03.866530  7239 net.cpp:380] Convolution15 -> Convolution15
I0129 22:47:03.875496  7239 net.cpp:122] Setting up Convolution15
I0129 22:47:03.875511  7239 net.cpp:129] Top shape: 50 320 16 16 (4096000)
I0129 22:47:03.875514  7239 net.cpp:137] Memory required for data: 2245223000
I0129 22:47:03.875519  7239 layer_factory.hpp:77] Creating layer BatchNorm15
I0129 22:47:03.875524  7239 net.cpp:84] Creating Layer BatchNorm15
I0129 22:47:03.875527  7239 net.cpp:406] BatchNorm15 <- Convolution15
I0129 22:47:03.875532  7239 net.cpp:367] BatchNorm15 -> Convolution15 (in-place)
I0129 22:47:03.875723  7239 net.cpp:122] Setting up BatchNorm15
I0129 22:47:03.875730  7239 net.cpp:129] Top shape: 50 320 16 16 (4096000)
I0129 22:47:03.875732  7239 net.cpp:137] Memory required for data: 2261607000
I0129 22:47:03.875737  7239 layer_factory.hpp:77] Creating layer Scale15
I0129 22:47:03.875741  7239 net.cpp:84] Creating Layer Scale15
I0129 22:47:03.875744  7239 net.cpp:406] Scale15 <- Convolution15
I0129 22:47:03.875747  7239 net.cpp:367] Scale15 -> Convolution15 (in-place)
I0129 22:47:03.875787  7239 layer_factory.hpp:77] Creating layer Scale15
I0129 22:47:03.875895  7239 net.cpp:122] Setting up Scale15
I0129 22:47:03.875900  7239 net.cpp:129] Top shape: 50 320 16 16 (4096000)
I0129 22:47:03.875903  7239 net.cpp:137] Memory required for data: 2277991000
I0129 22:47:03.875907  7239 layer_factory.hpp:77] Creating layer ReLU14
I0129 22:47:03.875911  7239 net.cpp:84] Creating Layer ReLU14
I0129 22:47:03.875913  7239 net.cpp:406] ReLU14 <- Convolution15
I0129 22:47:03.875917  7239 net.cpp:367] ReLU14 -> Convolution15 (in-place)
I0129 22:47:03.876071  7239 net.cpp:122] Setting up ReLU14
I0129 22:47:03.876078  7239 net.cpp:129] Top shape: 50 320 16 16 (4096000)
I0129 22:47:03.876080  7239 net.cpp:137] Memory required for data: 2294375000
I0129 22:47:03.876083  7239 layer_factory.hpp:77] Creating layer Convolution16
I0129 22:47:03.876091  7239 net.cpp:84] Creating Layer Convolution16
I0129 22:47:03.876094  7239 net.cpp:406] Convolution16 <- Convolution15
I0129 22:47:03.876098  7239 net.cpp:380] Convolution16 -> Convolution16
I0129 22:47:03.884925  7239 net.cpp:122] Setting up Convolution16
I0129 22:47:03.884938  7239 net.cpp:129] Top shape: 50 320 16 16 (4096000)
I0129 22:47:03.884940  7239 net.cpp:137] Memory required for data: 2310759000
I0129 22:47:03.884945  7239 layer_factory.hpp:77] Creating layer BatchNorm16
I0129 22:47:03.884953  7239 net.cpp:84] Creating Layer BatchNorm16
I0129 22:47:03.884955  7239 net.cpp:406] BatchNorm16 <- Convolution16
I0129 22:47:03.884959  7239 net.cpp:367] BatchNorm16 -> Convolution16 (in-place)
I0129 22:47:03.885149  7239 net.cpp:122] Setting up BatchNorm16
I0129 22:47:03.885157  7239 net.cpp:129] Top shape: 50 320 16 16 (4096000)
I0129 22:47:03.885169  7239 net.cpp:137] Memory required for data: 2327143000
I0129 22:47:03.885174  7239 layer_factory.hpp:77] Creating layer Scale16
I0129 22:47:03.885179  7239 net.cpp:84] Creating Layer Scale16
I0129 22:47:03.885182  7239 net.cpp:406] Scale16 <- Convolution16
I0129 22:47:03.885185  7239 net.cpp:367] Scale16 -> Convolution16 (in-place)
I0129 22:47:03.885228  7239 layer_factory.hpp:77] Creating layer Scale16
I0129 22:47:03.885334  7239 net.cpp:122] Setting up Scale16
I0129 22:47:03.885341  7239 net.cpp:129] Top shape: 50 320 16 16 (4096000)
I0129 22:47:03.885344  7239 net.cpp:137] Memory required for data: 2343527000
I0129 22:47:03.885347  7239 layer_factory.hpp:77] Creating layer Eltwise7
I0129 22:47:03.885352  7239 net.cpp:84] Creating Layer Eltwise7
I0129 22:47:03.885356  7239 net.cpp:406] Eltwise7 <- Eltwise6_ReLU13_0_split_1
I0129 22:47:03.885360  7239 net.cpp:406] Eltwise7 <- Convolution16
I0129 22:47:03.885363  7239 net.cpp:380] Eltwise7 -> Eltwise7
I0129 22:47:03.885381  7239 net.cpp:122] Setting up Eltwise7
I0129 22:47:03.885386  7239 net.cpp:129] Top shape: 50 320 16 16 (4096000)
I0129 22:47:03.885388  7239 net.cpp:137] Memory required for data: 2359911000
I0129 22:47:03.885390  7239 layer_factory.hpp:77] Creating layer ReLU15
I0129 22:47:03.885396  7239 net.cpp:84] Creating Layer ReLU15
I0129 22:47:03.885398  7239 net.cpp:406] ReLU15 <- Eltwise7
I0129 22:47:03.885401  7239 net.cpp:367] ReLU15 -> Eltwise7 (in-place)
I0129 22:47:03.885555  7239 net.cpp:122] Setting up ReLU15
I0129 22:47:03.885563  7239 net.cpp:129] Top shape: 50 320 16 16 (4096000)
I0129 22:47:03.885566  7239 net.cpp:137] Memory required for data: 2376295000
I0129 22:47:03.885568  7239 layer_factory.hpp:77] Creating layer Eltwise7_ReLU15_0_split
I0129 22:47:03.885572  7239 net.cpp:84] Creating Layer Eltwise7_ReLU15_0_split
I0129 22:47:03.885574  7239 net.cpp:406] Eltwise7_ReLU15_0_split <- Eltwise7
I0129 22:47:03.885579  7239 net.cpp:380] Eltwise7_ReLU15_0_split -> Eltwise7_ReLU15_0_split_0
I0129 22:47:03.885584  7239 net.cpp:380] Eltwise7_ReLU15_0_split -> Eltwise7_ReLU15_0_split_1
I0129 22:47:03.885622  7239 net.cpp:122] Setting up Eltwise7_ReLU15_0_split
I0129 22:47:03.885627  7239 net.cpp:129] Top shape: 50 320 16 16 (4096000)
I0129 22:47:03.885632  7239 net.cpp:129] Top shape: 50 320 16 16 (4096000)
I0129 22:47:03.885633  7239 net.cpp:137] Memory required for data: 2409063000
I0129 22:47:03.885635  7239 layer_factory.hpp:77] Creating layer Convolution17
I0129 22:47:03.885643  7239 net.cpp:84] Creating Layer Convolution17
I0129 22:47:03.885646  7239 net.cpp:406] Convolution17 <- Eltwise7_ReLU15_0_split_0
I0129 22:47:03.885651  7239 net.cpp:380] Convolution17 -> Convolution17
I0129 22:47:03.894489  7239 net.cpp:122] Setting up Convolution17
I0129 22:47:03.894501  7239 net.cpp:129] Top shape: 50 320 16 16 (4096000)
I0129 22:47:03.894505  7239 net.cpp:137] Memory required for data: 2425447000
I0129 22:47:03.894510  7239 layer_factory.hpp:77] Creating layer BatchNorm17
I0129 22:47:03.894515  7239 net.cpp:84] Creating Layer BatchNorm17
I0129 22:47:03.894517  7239 net.cpp:406] BatchNorm17 <- Convolution17
I0129 22:47:03.894523  7239 net.cpp:367] BatchNorm17 -> Convolution17 (in-place)
I0129 22:47:03.894716  7239 net.cpp:122] Setting up BatchNorm17
I0129 22:47:03.894729  7239 net.cpp:129] Top shape: 50 320 16 16 (4096000)
I0129 22:47:03.894732  7239 net.cpp:137] Memory required for data: 2441831000
I0129 22:47:03.894738  7239 layer_factory.hpp:77] Creating layer Scale17
I0129 22:47:03.894742  7239 net.cpp:84] Creating Layer Scale17
I0129 22:47:03.894745  7239 net.cpp:406] Scale17 <- Convolution17
I0129 22:47:03.894748  7239 net.cpp:367] Scale17 -> Convolution17 (in-place)
I0129 22:47:03.894790  7239 layer_factory.hpp:77] Creating layer Scale17
I0129 22:47:03.894896  7239 net.cpp:122] Setting up Scale17
I0129 22:47:03.894903  7239 net.cpp:129] Top shape: 50 320 16 16 (4096000)
I0129 22:47:03.894906  7239 net.cpp:137] Memory required for data: 2458215000
I0129 22:47:03.894910  7239 layer_factory.hpp:77] Creating layer ReLU16
I0129 22:47:03.894922  7239 net.cpp:84] Creating Layer ReLU16
I0129 22:47:03.894925  7239 net.cpp:406] ReLU16 <- Convolution17
I0129 22:47:03.894928  7239 net.cpp:367] ReLU16 -> Convolution17 (in-place)
I0129 22:47:03.895084  7239 net.cpp:122] Setting up ReLU16
I0129 22:47:03.895092  7239 net.cpp:129] Top shape: 50 320 16 16 (4096000)
I0129 22:47:03.895094  7239 net.cpp:137] Memory required for data: 2474599000
I0129 22:47:03.895097  7239 layer_factory.hpp:77] Creating layer Convolution18
I0129 22:47:03.895105  7239 net.cpp:84] Creating Layer Convolution18
I0129 22:47:03.895108  7239 net.cpp:406] Convolution18 <- Convolution17
I0129 22:47:03.895113  7239 net.cpp:380] Convolution18 -> Convolution18
I0129 22:47:03.903947  7239 net.cpp:122] Setting up Convolution18
I0129 22:47:03.903959  7239 net.cpp:129] Top shape: 50 320 16 16 (4096000)
I0129 22:47:03.903964  7239 net.cpp:137] Memory required for data: 2490983000
I0129 22:47:03.903969  7239 layer_factory.hpp:77] Creating layer BatchNorm18
I0129 22:47:03.903973  7239 net.cpp:84] Creating Layer BatchNorm18
I0129 22:47:03.903977  7239 net.cpp:406] BatchNorm18 <- Convolution18
I0129 22:47:03.903982  7239 net.cpp:367] BatchNorm18 -> Convolution18 (in-place)
I0129 22:47:03.904176  7239 net.cpp:122] Setting up BatchNorm18
I0129 22:47:03.904182  7239 net.cpp:129] Top shape: 50 320 16 16 (4096000)
I0129 22:47:03.904186  7239 net.cpp:137] Memory required for data: 2507367000
I0129 22:47:03.904191  7239 layer_factory.hpp:77] Creating layer Scale18
I0129 22:47:03.904194  7239 net.cpp:84] Creating Layer Scale18
I0129 22:47:03.904196  7239 net.cpp:406] Scale18 <- Convolution18
I0129 22:47:03.904201  7239 net.cpp:367] Scale18 -> Convolution18 (in-place)
I0129 22:47:03.904239  7239 layer_factory.hpp:77] Creating layer Scale18
I0129 22:47:03.904345  7239 net.cpp:122] Setting up Scale18
I0129 22:47:03.904351  7239 net.cpp:129] Top shape: 50 320 16 16 (4096000)
I0129 22:47:03.904355  7239 net.cpp:137] Memory required for data: 2523751000
I0129 22:47:03.904358  7239 layer_factory.hpp:77] Creating layer Eltwise8
I0129 22:47:03.904363  7239 net.cpp:84] Creating Layer Eltwise8
I0129 22:47:03.904366  7239 net.cpp:406] Eltwise8 <- Eltwise7_ReLU15_0_split_1
I0129 22:47:03.904369  7239 net.cpp:406] Eltwise8 <- Convolution18
I0129 22:47:03.904373  7239 net.cpp:380] Eltwise8 -> Eltwise8
I0129 22:47:03.904393  7239 net.cpp:122] Setting up Eltwise8
I0129 22:47:03.904398  7239 net.cpp:129] Top shape: 50 320 16 16 (4096000)
I0129 22:47:03.904400  7239 net.cpp:137] Memory required for data: 2540135000
I0129 22:47:03.904402  7239 layer_factory.hpp:77] Creating layer ReLU17
I0129 22:47:03.904407  7239 net.cpp:84] Creating Layer ReLU17
I0129 22:47:03.904408  7239 net.cpp:406] ReLU17 <- Eltwise8
I0129 22:47:03.904413  7239 net.cpp:367] ReLU17 -> Eltwise8 (in-place)
I0129 22:47:03.904567  7239 net.cpp:122] Setting up ReLU17
I0129 22:47:03.904574  7239 net.cpp:129] Top shape: 50 320 16 16 (4096000)
I0129 22:47:03.904577  7239 net.cpp:137] Memory required for data: 2556519000
I0129 22:47:03.904580  7239 layer_factory.hpp:77] Creating layer Eltwise8_ReLU17_0_split
I0129 22:47:03.904584  7239 net.cpp:84] Creating Layer Eltwise8_ReLU17_0_split
I0129 22:47:03.904587  7239 net.cpp:406] Eltwise8_ReLU17_0_split <- Eltwise8
I0129 22:47:03.904590  7239 net.cpp:380] Eltwise8_ReLU17_0_split -> Eltwise8_ReLU17_0_split_0
I0129 22:47:03.904597  7239 net.cpp:380] Eltwise8_ReLU17_0_split -> Eltwise8_ReLU17_0_split_1
I0129 22:47:03.904635  7239 net.cpp:122] Setting up Eltwise8_ReLU17_0_split
I0129 22:47:03.904640  7239 net.cpp:129] Top shape: 50 320 16 16 (4096000)
I0129 22:47:03.904644  7239 net.cpp:129] Top shape: 50 320 16 16 (4096000)
I0129 22:47:03.904645  7239 net.cpp:137] Memory required for data: 2589287000
I0129 22:47:03.904647  7239 layer_factory.hpp:77] Creating layer Convolution19
I0129 22:47:03.904656  7239 net.cpp:84] Creating Layer Convolution19
I0129 22:47:03.904660  7239 net.cpp:406] Convolution19 <- Eltwise8_ReLU17_0_split_0
I0129 22:47:03.904665  7239 net.cpp:380] Convolution19 -> Convolution19
I0129 22:47:03.913887  7239 net.cpp:122] Setting up Convolution19
I0129 22:47:03.913900  7239 net.cpp:129] Top shape: 50 320 16 16 (4096000)
I0129 22:47:03.913903  7239 net.cpp:137] Memory required for data: 2605671000
I0129 22:47:03.913908  7239 layer_factory.hpp:77] Creating layer BatchNorm19
I0129 22:47:03.913914  7239 net.cpp:84] Creating Layer BatchNorm19
I0129 22:47:03.913918  7239 net.cpp:406] BatchNorm19 <- Convolution19
I0129 22:47:03.913923  7239 net.cpp:367] BatchNorm19 -> Convolution19 (in-place)
I0129 22:47:03.914115  7239 net.cpp:122] Setting up BatchNorm19
I0129 22:47:03.914122  7239 net.cpp:129] Top shape: 50 320 16 16 (4096000)
I0129 22:47:03.914124  7239 net.cpp:137] Memory required for data: 2622055000
I0129 22:47:03.914144  7239 layer_factory.hpp:77] Creating layer Scale19
I0129 22:47:03.914151  7239 net.cpp:84] Creating Layer Scale19
I0129 22:47:03.914153  7239 net.cpp:406] Scale19 <- Convolution19
I0129 22:47:03.914156  7239 net.cpp:367] Scale19 -> Convolution19 (in-place)
I0129 22:47:03.914199  7239 layer_factory.hpp:77] Creating layer Scale19
I0129 22:47:03.914309  7239 net.cpp:122] Setting up Scale19
I0129 22:47:03.914315  7239 net.cpp:129] Top shape: 50 320 16 16 (4096000)
I0129 22:47:03.914317  7239 net.cpp:137] Memory required for data: 2638439000
I0129 22:47:03.914321  7239 layer_factory.hpp:77] Creating layer ReLU18
I0129 22:47:03.914326  7239 net.cpp:84] Creating Layer ReLU18
I0129 22:47:03.914328  7239 net.cpp:406] ReLU18 <- Convolution19
I0129 22:47:03.914331  7239 net.cpp:367] ReLU18 -> Convolution19 (in-place)
I0129 22:47:03.914832  7239 net.cpp:122] Setting up ReLU18
I0129 22:47:03.914844  7239 net.cpp:129] Top shape: 50 320 16 16 (4096000)
I0129 22:47:03.914847  7239 net.cpp:137] Memory required for data: 2654823000
I0129 22:47:03.914850  7239 layer_factory.hpp:77] Creating layer Convolution20
I0129 22:47:03.914858  7239 net.cpp:84] Creating Layer Convolution20
I0129 22:47:03.914861  7239 net.cpp:406] Convolution20 <- Convolution19
I0129 22:47:03.914866  7239 net.cpp:380] Convolution20 -> Convolution20
I0129 22:47:03.923390  7239 net.cpp:122] Setting up Convolution20
I0129 22:47:03.923403  7239 net.cpp:129] Top shape: 50 320 16 16 (4096000)
I0129 22:47:03.923408  7239 net.cpp:137] Memory required for data: 2671207000
I0129 22:47:03.923413  7239 layer_factory.hpp:77] Creating layer BatchNorm20
I0129 22:47:03.923418  7239 net.cpp:84] Creating Layer BatchNorm20
I0129 22:47:03.923420  7239 net.cpp:406] BatchNorm20 <- Convolution20
I0129 22:47:03.923425  7239 net.cpp:367] BatchNorm20 -> Convolution20 (in-place)
I0129 22:47:03.923621  7239 net.cpp:122] Setting up BatchNorm20
I0129 22:47:03.923629  7239 net.cpp:129] Top shape: 50 320 16 16 (4096000)
I0129 22:47:03.923630  7239 net.cpp:137] Memory required for data: 2687591000
I0129 22:47:03.923636  7239 layer_factory.hpp:77] Creating layer Scale20
I0129 22:47:03.923640  7239 net.cpp:84] Creating Layer Scale20
I0129 22:47:03.923642  7239 net.cpp:406] Scale20 <- Convolution20
I0129 22:47:03.923645  7239 net.cpp:367] Scale20 -> Convolution20 (in-place)
I0129 22:47:03.923686  7239 layer_factory.hpp:77] Creating layer Scale20
I0129 22:47:03.923795  7239 net.cpp:122] Setting up Scale20
I0129 22:47:03.923804  7239 net.cpp:129] Top shape: 50 320 16 16 (4096000)
I0129 22:47:03.923805  7239 net.cpp:137] Memory required for data: 2703975000
I0129 22:47:03.923810  7239 layer_factory.hpp:77] Creating layer Eltwise9
I0129 22:47:03.923815  7239 net.cpp:84] Creating Layer Eltwise9
I0129 22:47:03.923816  7239 net.cpp:406] Eltwise9 <- Eltwise8_ReLU17_0_split_1
I0129 22:47:03.923820  7239 net.cpp:406] Eltwise9 <- Convolution20
I0129 22:47:03.923823  7239 net.cpp:380] Eltwise9 -> Eltwise9
I0129 22:47:03.923843  7239 net.cpp:122] Setting up Eltwise9
I0129 22:47:03.923848  7239 net.cpp:129] Top shape: 50 320 16 16 (4096000)
I0129 22:47:03.923851  7239 net.cpp:137] Memory required for data: 2720359000
I0129 22:47:03.923853  7239 layer_factory.hpp:77] Creating layer ReLU19
I0129 22:47:03.923857  7239 net.cpp:84] Creating Layer ReLU19
I0129 22:47:03.923859  7239 net.cpp:406] ReLU19 <- Eltwise9
I0129 22:47:03.923873  7239 net.cpp:367] ReLU19 -> Eltwise9 (in-place)
I0129 22:47:03.924372  7239 net.cpp:122] Setting up ReLU19
I0129 22:47:03.924383  7239 net.cpp:129] Top shape: 50 320 16 16 (4096000)
I0129 22:47:03.924386  7239 net.cpp:137] Memory required for data: 2736743000
I0129 22:47:03.924388  7239 layer_factory.hpp:77] Creating layer Eltwise9_ReLU19_0_split
I0129 22:47:03.924394  7239 net.cpp:84] Creating Layer Eltwise9_ReLU19_0_split
I0129 22:47:03.924397  7239 net.cpp:406] Eltwise9_ReLU19_0_split <- Eltwise9
I0129 22:47:03.924403  7239 net.cpp:380] Eltwise9_ReLU19_0_split -> Eltwise9_ReLU19_0_split_0
I0129 22:47:03.924409  7239 net.cpp:380] Eltwise9_ReLU19_0_split -> Eltwise9_ReLU19_0_split_1
I0129 22:47:03.924451  7239 net.cpp:122] Setting up Eltwise9_ReLU19_0_split
I0129 22:47:03.924458  7239 net.cpp:129] Top shape: 50 320 16 16 (4096000)
I0129 22:47:03.924460  7239 net.cpp:129] Top shape: 50 320 16 16 (4096000)
I0129 22:47:03.924463  7239 net.cpp:137] Memory required for data: 2769511000
I0129 22:47:03.924465  7239 layer_factory.hpp:77] Creating layer Convolution23
I0129 22:47:03.924473  7239 net.cpp:84] Creating Layer Convolution23
I0129 22:47:03.924475  7239 net.cpp:406] Convolution23 <- Eltwise9_ReLU19_0_split_0
I0129 22:47:03.924479  7239 net.cpp:380] Convolution23 -> Convolution23
I0129 22:47:03.927001  7239 net.cpp:122] Setting up Convolution23
I0129 22:47:03.927014  7239 net.cpp:129] Top shape: 50 640 8 8 (2048000)
I0129 22:47:03.927016  7239 net.cpp:137] Memory required for data: 2777703000
I0129 22:47:03.927021  7239 layer_factory.hpp:77] Creating layer BatchNorm23
I0129 22:47:03.927027  7239 net.cpp:84] Creating Layer BatchNorm23
I0129 22:47:03.927031  7239 net.cpp:406] BatchNorm23 <- Convolution23
I0129 22:47:03.927034  7239 net.cpp:367] BatchNorm23 -> Convolution23 (in-place)
I0129 22:47:03.927222  7239 net.cpp:122] Setting up BatchNorm23
I0129 22:47:03.927229  7239 net.cpp:129] Top shape: 50 640 8 8 (2048000)
I0129 22:47:03.927232  7239 net.cpp:137] Memory required for data: 2785895000
I0129 22:47:03.927237  7239 layer_factory.hpp:77] Creating layer Scale23
I0129 22:47:03.927242  7239 net.cpp:84] Creating Layer Scale23
I0129 22:47:03.927244  7239 net.cpp:406] Scale23 <- Convolution23
I0129 22:47:03.927248  7239 net.cpp:367] Scale23 -> Convolution23 (in-place)
I0129 22:47:03.927284  7239 layer_factory.hpp:77] Creating layer Scale23
I0129 22:47:03.927395  7239 net.cpp:122] Setting up Scale23
I0129 22:47:03.927402  7239 net.cpp:129] Top shape: 50 640 8 8 (2048000)
I0129 22:47:03.927403  7239 net.cpp:137] Memory required for data: 2794087000
I0129 22:47:03.927407  7239 layer_factory.hpp:77] Creating layer Convolution24
I0129 22:47:03.927415  7239 net.cpp:84] Creating Layer Convolution24
I0129 22:47:03.927418  7239 net.cpp:406] Convolution24 <- Eltwise9_ReLU19_0_split_1
I0129 22:47:03.927423  7239 net.cpp:380] Convolution24 -> Convolution24
I0129 22:47:03.942824  7239 net.cpp:122] Setting up Convolution24
I0129 22:47:03.942840  7239 net.cpp:129] Top shape: 50 640 8 8 (2048000)
I0129 22:47:03.942843  7239 net.cpp:137] Memory required for data: 2802279000
I0129 22:47:03.942848  7239 layer_factory.hpp:77] Creating layer BatchNorm24
I0129 22:47:03.942855  7239 net.cpp:84] Creating Layer BatchNorm24
I0129 22:47:03.942858  7239 net.cpp:406] BatchNorm24 <- Convolution24
I0129 22:47:03.942863  7239 net.cpp:367] BatchNorm24 -> Convolution24 (in-place)
I0129 22:47:03.943054  7239 net.cpp:122] Setting up BatchNorm24
I0129 22:47:03.943060  7239 net.cpp:129] Top shape: 50 640 8 8 (2048000)
I0129 22:47:03.943063  7239 net.cpp:137] Memory required for data: 2810471000
I0129 22:47:03.943068  7239 layer_factory.hpp:77] Creating layer Scale24
I0129 22:47:03.943073  7239 net.cpp:84] Creating Layer Scale24
I0129 22:47:03.943075  7239 net.cpp:406] Scale24 <- Convolution24
I0129 22:47:03.943078  7239 net.cpp:367] Scale24 -> Convolution24 (in-place)
I0129 22:47:03.943116  7239 layer_factory.hpp:77] Creating layer Scale24
I0129 22:47:03.943228  7239 net.cpp:122] Setting up Scale24
I0129 22:47:03.943245  7239 net.cpp:129] Top shape: 50 640 8 8 (2048000)
I0129 22:47:03.943248  7239 net.cpp:137] Memory required for data: 2818663000
I0129 22:47:03.943253  7239 layer_factory.hpp:77] Creating layer ReLU22
I0129 22:47:03.943256  7239 net.cpp:84] Creating Layer ReLU22
I0129 22:47:03.943259  7239 net.cpp:406] ReLU22 <- Convolution24
I0129 22:47:03.943264  7239 net.cpp:367] ReLU22 -> Convolution24 (in-place)
I0129 22:47:03.943768  7239 net.cpp:122] Setting up ReLU22
I0129 22:47:03.943779  7239 net.cpp:129] Top shape: 50 640 8 8 (2048000)
I0129 22:47:03.943783  7239 net.cpp:137] Memory required for data: 2826855000
I0129 22:47:03.943785  7239 layer_factory.hpp:77] Creating layer Convolution25
I0129 22:47:03.943794  7239 net.cpp:84] Creating Layer Convolution25
I0129 22:47:03.943797  7239 net.cpp:406] Convolution25 <- Convolution24
I0129 22:47:03.943802  7239 net.cpp:380] Convolution25 -> Convolution25
I0129 22:47:03.974581  7239 net.cpp:122] Setting up Convolution25
I0129 22:47:03.974606  7239 net.cpp:129] Top shape: 50 640 8 8 (2048000)
I0129 22:47:03.974608  7239 net.cpp:137] Memory required for data: 2835047000
I0129 22:47:03.974617  7239 layer_factory.hpp:77] Creating layer BatchNorm25
I0129 22:47:03.974624  7239 net.cpp:84] Creating Layer BatchNorm25
I0129 22:47:03.974628  7239 net.cpp:406] BatchNorm25 <- Convolution25
I0129 22:47:03.974635  7239 net.cpp:367] BatchNorm25 -> Convolution25 (in-place)
I0129 22:47:03.974843  7239 net.cpp:122] Setting up BatchNorm25
I0129 22:47:03.974849  7239 net.cpp:129] Top shape: 50 640 8 8 (2048000)
I0129 22:47:03.974851  7239 net.cpp:137] Memory required for data: 2843239000
I0129 22:47:03.974856  7239 layer_factory.hpp:77] Creating layer Scale25
I0129 22:47:03.974864  7239 net.cpp:84] Creating Layer Scale25
I0129 22:47:03.974865  7239 net.cpp:406] Scale25 <- Convolution25
I0129 22:47:03.974869  7239 net.cpp:367] Scale25 -> Convolution25 (in-place)
I0129 22:47:03.974910  7239 layer_factory.hpp:77] Creating layer Scale25
I0129 22:47:03.975024  7239 net.cpp:122] Setting up Scale25
I0129 22:47:03.975030  7239 net.cpp:129] Top shape: 50 640 8 8 (2048000)
I0129 22:47:03.975033  7239 net.cpp:137] Memory required for data: 2851431000
I0129 22:47:03.975036  7239 layer_factory.hpp:77] Creating layer Eltwise11
I0129 22:47:03.975044  7239 net.cpp:84] Creating Layer Eltwise11
I0129 22:47:03.975045  7239 net.cpp:406] Eltwise11 <- Convolution23
I0129 22:47:03.975049  7239 net.cpp:406] Eltwise11 <- Convolution25
I0129 22:47:03.975054  7239 net.cpp:380] Eltwise11 -> Eltwise11
I0129 22:47:03.975077  7239 net.cpp:122] Setting up Eltwise11
I0129 22:47:03.975083  7239 net.cpp:129] Top shape: 50 640 8 8 (2048000)
I0129 22:47:03.975085  7239 net.cpp:137] Memory required for data: 2859623000
I0129 22:47:03.975087  7239 layer_factory.hpp:77] Creating layer ReLU23
I0129 22:47:03.975092  7239 net.cpp:84] Creating Layer ReLU23
I0129 22:47:03.975095  7239 net.cpp:406] ReLU23 <- Eltwise11
I0129 22:47:03.975100  7239 net.cpp:367] ReLU23 -> Eltwise11 (in-place)
I0129 22:47:03.975246  7239 net.cpp:122] Setting up ReLU23
I0129 22:47:03.975253  7239 net.cpp:129] Top shape: 50 640 8 8 (2048000)
I0129 22:47:03.975256  7239 net.cpp:137] Memory required for data: 2867815000
I0129 22:47:03.975258  7239 layer_factory.hpp:77] Creating layer Eltwise11_ReLU23_0_split
I0129 22:47:03.975263  7239 net.cpp:84] Creating Layer Eltwise11_ReLU23_0_split
I0129 22:47:03.975266  7239 net.cpp:406] Eltwise11_ReLU23_0_split <- Eltwise11
I0129 22:47:03.975271  7239 net.cpp:380] Eltwise11_ReLU23_0_split -> Eltwise11_ReLU23_0_split_0
I0129 22:47:03.975276  7239 net.cpp:380] Eltwise11_ReLU23_0_split -> Eltwise11_ReLU23_0_split_1
I0129 22:47:03.975317  7239 net.cpp:122] Setting up Eltwise11_ReLU23_0_split
I0129 22:47:03.975322  7239 net.cpp:129] Top shape: 50 640 8 8 (2048000)
I0129 22:47:03.975324  7239 net.cpp:129] Top shape: 50 640 8 8 (2048000)
I0129 22:47:03.975327  7239 net.cpp:137] Memory required for data: 2884199000
I0129 22:47:03.975329  7239 layer_factory.hpp:77] Creating layer Convolution26
I0129 22:47:03.975338  7239 net.cpp:84] Creating Layer Convolution26
I0129 22:47:03.975354  7239 net.cpp:406] Convolution26 <- Eltwise11_ReLU23_0_split_0
I0129 22:47:03.975363  7239 net.cpp:380] Convolution26 -> Convolution26
I0129 22:47:04.006058  7239 net.cpp:122] Setting up Convolution26
I0129 22:47:04.006080  7239 net.cpp:129] Top shape: 50 640 8 8 (2048000)
I0129 22:47:04.006083  7239 net.cpp:137] Memory required for data: 2892391000
I0129 22:47:04.006093  7239 layer_factory.hpp:77] Creating layer BatchNorm26
I0129 22:47:04.006101  7239 net.cpp:84] Creating Layer BatchNorm26
I0129 22:47:04.006104  7239 net.cpp:406] BatchNorm26 <- Convolution26
I0129 22:47:04.006111  7239 net.cpp:367] BatchNorm26 -> Convolution26 (in-place)
I0129 22:47:04.006319  7239 net.cpp:122] Setting up BatchNorm26
I0129 22:47:04.006325  7239 net.cpp:129] Top shape: 50 640 8 8 (2048000)
I0129 22:47:04.006327  7239 net.cpp:137] Memory required for data: 2900583000
I0129 22:47:04.006332  7239 layer_factory.hpp:77] Creating layer Scale26
I0129 22:47:04.006338  7239 net.cpp:84] Creating Layer Scale26
I0129 22:47:04.006341  7239 net.cpp:406] Scale26 <- Convolution26
I0129 22:47:04.006345  7239 net.cpp:367] Scale26 -> Convolution26 (in-place)
I0129 22:47:04.006388  7239 layer_factory.hpp:77] Creating layer Scale26
I0129 22:47:04.006501  7239 net.cpp:122] Setting up Scale26
I0129 22:47:04.006510  7239 net.cpp:129] Top shape: 50 640 8 8 (2048000)
I0129 22:47:04.006511  7239 net.cpp:137] Memory required for data: 2908775000
I0129 22:47:04.006515  7239 layer_factory.hpp:77] Creating layer ReLU24
I0129 22:47:04.006520  7239 net.cpp:84] Creating Layer ReLU24
I0129 22:47:04.006523  7239 net.cpp:406] ReLU24 <- Convolution26
I0129 22:47:04.006526  7239 net.cpp:367] ReLU24 -> Convolution26 (in-place)
I0129 22:47:04.006676  7239 net.cpp:122] Setting up ReLU24
I0129 22:47:04.006685  7239 net.cpp:129] Top shape: 50 640 8 8 (2048000)
I0129 22:47:04.006686  7239 net.cpp:137] Memory required for data: 2916967000
I0129 22:47:04.006688  7239 layer_factory.hpp:77] Creating layer Convolution27
I0129 22:47:04.006700  7239 net.cpp:84] Creating Layer Convolution27
I0129 22:47:04.006702  7239 net.cpp:406] Convolution27 <- Convolution26
I0129 22:47:04.006707  7239 net.cpp:380] Convolution27 -> Convolution27
I0129 22:47:04.037240  7239 net.cpp:122] Setting up Convolution27
I0129 22:47:04.037262  7239 net.cpp:129] Top shape: 50 640 8 8 (2048000)
I0129 22:47:04.037266  7239 net.cpp:137] Memory required for data: 2925159000
I0129 22:47:04.037273  7239 layer_factory.hpp:77] Creating layer BatchNorm27
I0129 22:47:04.037283  7239 net.cpp:84] Creating Layer BatchNorm27
I0129 22:47:04.037286  7239 net.cpp:406] BatchNorm27 <- Convolution27
I0129 22:47:04.037293  7239 net.cpp:367] BatchNorm27 -> Convolution27 (in-place)
I0129 22:47:04.037492  7239 net.cpp:122] Setting up BatchNorm27
I0129 22:47:04.037498  7239 net.cpp:129] Top shape: 50 640 8 8 (2048000)
I0129 22:47:04.037500  7239 net.cpp:137] Memory required for data: 2933351000
I0129 22:47:04.037506  7239 layer_factory.hpp:77] Creating layer Scale27
I0129 22:47:04.037513  7239 net.cpp:84] Creating Layer Scale27
I0129 22:47:04.037515  7239 net.cpp:406] Scale27 <- Convolution27
I0129 22:47:04.037518  7239 net.cpp:367] Scale27 -> Convolution27 (in-place)
I0129 22:47:04.037560  7239 layer_factory.hpp:77] Creating layer Scale27
I0129 22:47:04.037673  7239 net.cpp:122] Setting up Scale27
I0129 22:47:04.037679  7239 net.cpp:129] Top shape: 50 640 8 8 (2048000)
I0129 22:47:04.037681  7239 net.cpp:137] Memory required for data: 2941543000
I0129 22:47:04.037686  7239 layer_factory.hpp:77] Creating layer Eltwise12
I0129 22:47:04.037691  7239 net.cpp:84] Creating Layer Eltwise12
I0129 22:47:04.037694  7239 net.cpp:406] Eltwise12 <- Eltwise11_ReLU23_0_split_1
I0129 22:47:04.037698  7239 net.cpp:406] Eltwise12 <- Convolution27
I0129 22:47:04.037703  7239 net.cpp:380] Eltwise12 -> Eltwise12
I0129 22:47:04.037729  7239 net.cpp:122] Setting up Eltwise12
I0129 22:47:04.037734  7239 net.cpp:129] Top shape: 50 640 8 8 (2048000)
I0129 22:47:04.037735  7239 net.cpp:137] Memory required for data: 2949735000
I0129 22:47:04.037752  7239 layer_factory.hpp:77] Creating layer ReLU25
I0129 22:47:04.037756  7239 net.cpp:84] Creating Layer ReLU25
I0129 22:47:04.037760  7239 net.cpp:406] ReLU25 <- Eltwise12
I0129 22:47:04.037762  7239 net.cpp:367] ReLU25 -> Eltwise12 (in-place)
I0129 22:47:04.037917  7239 net.cpp:122] Setting up ReLU25
I0129 22:47:04.037925  7239 net.cpp:129] Top shape: 50 640 8 8 (2048000)
I0129 22:47:04.037927  7239 net.cpp:137] Memory required for data: 2957927000
I0129 22:47:04.037930  7239 layer_factory.hpp:77] Creating layer Eltwise12_ReLU25_0_split
I0129 22:47:04.037936  7239 net.cpp:84] Creating Layer Eltwise12_ReLU25_0_split
I0129 22:47:04.037938  7239 net.cpp:406] Eltwise12_ReLU25_0_split <- Eltwise12
I0129 22:47:04.037943  7239 net.cpp:380] Eltwise12_ReLU25_0_split -> Eltwise12_ReLU25_0_split_0
I0129 22:47:04.037948  7239 net.cpp:380] Eltwise12_ReLU25_0_split -> Eltwise12_ReLU25_0_split_1
I0129 22:47:04.037988  7239 net.cpp:122] Setting up Eltwise12_ReLU25_0_split
I0129 22:47:04.037994  7239 net.cpp:129] Top shape: 50 640 8 8 (2048000)
I0129 22:47:04.037997  7239 net.cpp:129] Top shape: 50 640 8 8 (2048000)
I0129 22:47:04.037999  7239 net.cpp:137] Memory required for data: 2974311000
I0129 22:47:04.038002  7239 layer_factory.hpp:77] Creating layer Convolution28
I0129 22:47:04.038009  7239 net.cpp:84] Creating Layer Convolution28
I0129 22:47:04.038012  7239 net.cpp:406] Convolution28 <- Eltwise12_ReLU25_0_split_0
I0129 22:47:04.038017  7239 net.cpp:380] Convolution28 -> Convolution28
I0129 22:47:04.068598  7239 net.cpp:122] Setting up Convolution28
I0129 22:47:04.068620  7239 net.cpp:129] Top shape: 50 640 8 8 (2048000)
I0129 22:47:04.068624  7239 net.cpp:137] Memory required for data: 2982503000
I0129 22:47:04.068631  7239 layer_factory.hpp:77] Creating layer BatchNorm28
I0129 22:47:04.068640  7239 net.cpp:84] Creating Layer BatchNorm28
I0129 22:47:04.068645  7239 net.cpp:406] BatchNorm28 <- Convolution28
I0129 22:47:04.068650  7239 net.cpp:367] BatchNorm28 -> Convolution28 (in-place)
I0129 22:47:04.068851  7239 net.cpp:122] Setting up BatchNorm28
I0129 22:47:04.068858  7239 net.cpp:129] Top shape: 50 640 8 8 (2048000)
I0129 22:47:04.068861  7239 net.cpp:137] Memory required for data: 2990695000
I0129 22:47:04.068866  7239 layer_factory.hpp:77] Creating layer Scale28
I0129 22:47:04.068871  7239 net.cpp:84] Creating Layer Scale28
I0129 22:47:04.068873  7239 net.cpp:406] Scale28 <- Convolution28
I0129 22:47:04.068876  7239 net.cpp:367] Scale28 -> Convolution28 (in-place)
I0129 22:47:04.068919  7239 layer_factory.hpp:77] Creating layer Scale28
I0129 22:47:04.069036  7239 net.cpp:122] Setting up Scale28
I0129 22:47:04.069042  7239 net.cpp:129] Top shape: 50 640 8 8 (2048000)
I0129 22:47:04.069046  7239 net.cpp:137] Memory required for data: 2998887000
I0129 22:47:04.069049  7239 layer_factory.hpp:77] Creating layer ReLU26
I0129 22:47:04.069053  7239 net.cpp:84] Creating Layer ReLU26
I0129 22:47:04.069056  7239 net.cpp:406] ReLU26 <- Convolution28
I0129 22:47:04.069061  7239 net.cpp:367] ReLU26 -> Convolution28 (in-place)
I0129 22:47:04.069211  7239 net.cpp:122] Setting up ReLU26
I0129 22:47:04.069218  7239 net.cpp:129] Top shape: 50 640 8 8 (2048000)
I0129 22:47:04.069221  7239 net.cpp:137] Memory required for data: 3007079000
I0129 22:47:04.069223  7239 layer_factory.hpp:77] Creating layer Convolution29
I0129 22:47:04.069232  7239 net.cpp:84] Creating Layer Convolution29
I0129 22:47:04.069236  7239 net.cpp:406] Convolution29 <- Convolution28
I0129 22:47:04.069241  7239 net.cpp:380] Convolution29 -> Convolution29
I0129 22:47:04.099825  7239 net.cpp:122] Setting up Convolution29
I0129 22:47:04.099850  7239 net.cpp:129] Top shape: 50 640 8 8 (2048000)
I0129 22:47:04.099853  7239 net.cpp:137] Memory required for data: 3015271000
I0129 22:47:04.099861  7239 layer_factory.hpp:77] Creating layer BatchNorm29
I0129 22:47:04.099884  7239 net.cpp:84] Creating Layer BatchNorm29
I0129 22:47:04.099889  7239 net.cpp:406] BatchNorm29 <- Convolution29
I0129 22:47:04.099895  7239 net.cpp:367] BatchNorm29 -> Convolution29 (in-place)
I0129 22:47:04.100112  7239 net.cpp:122] Setting up BatchNorm29
I0129 22:47:04.100119  7239 net.cpp:129] Top shape: 50 640 8 8 (2048000)
I0129 22:47:04.100121  7239 net.cpp:137] Memory required for data: 3023463000
I0129 22:47:04.100127  7239 layer_factory.hpp:77] Creating layer Scale29
I0129 22:47:04.100134  7239 net.cpp:84] Creating Layer Scale29
I0129 22:47:04.100137  7239 net.cpp:406] Scale29 <- Convolution29
I0129 22:47:04.100142  7239 net.cpp:367] Scale29 -> Convolution29 (in-place)
I0129 22:47:04.100185  7239 layer_factory.hpp:77] Creating layer Scale29
I0129 22:47:04.100301  7239 net.cpp:122] Setting up Scale29
I0129 22:47:04.100306  7239 net.cpp:129] Top shape: 50 640 8 8 (2048000)
I0129 22:47:04.100308  7239 net.cpp:137] Memory required for data: 3031655000
I0129 22:47:04.100312  7239 layer_factory.hpp:77] Creating layer Eltwise13
I0129 22:47:04.100319  7239 net.cpp:84] Creating Layer Eltwise13
I0129 22:47:04.100322  7239 net.cpp:406] Eltwise13 <- Eltwise12_ReLU25_0_split_1
I0129 22:47:04.100325  7239 net.cpp:406] Eltwise13 <- Convolution29
I0129 22:47:04.100329  7239 net.cpp:380] Eltwise13 -> Eltwise13
I0129 22:47:04.100355  7239 net.cpp:122] Setting up Eltwise13
I0129 22:47:04.100360  7239 net.cpp:129] Top shape: 50 640 8 8 (2048000)
I0129 22:47:04.100363  7239 net.cpp:137] Memory required for data: 3039847000
I0129 22:47:04.100364  7239 layer_factory.hpp:77] Creating layer ReLU27
I0129 22:47:04.100369  7239 net.cpp:84] Creating Layer ReLU27
I0129 22:47:04.100371  7239 net.cpp:406] ReLU27 <- Eltwise13
I0129 22:47:04.100376  7239 net.cpp:367] ReLU27 -> Eltwise13 (in-place)
I0129 22:47:04.100883  7239 net.cpp:122] Setting up ReLU27
I0129 22:47:04.100893  7239 net.cpp:129] Top shape: 50 640 8 8 (2048000)
I0129 22:47:04.100895  7239 net.cpp:137] Memory required for data: 3048039000
I0129 22:47:04.100899  7239 layer_factory.hpp:77] Creating layer Eltwise13_ReLU27_0_split
I0129 22:47:04.100904  7239 net.cpp:84] Creating Layer Eltwise13_ReLU27_0_split
I0129 22:47:04.100908  7239 net.cpp:406] Eltwise13_ReLU27_0_split <- Eltwise13
I0129 22:47:04.100914  7239 net.cpp:380] Eltwise13_ReLU27_0_split -> Eltwise13_ReLU27_0_split_0
I0129 22:47:04.100919  7239 net.cpp:380] Eltwise13_ReLU27_0_split -> Eltwise13_ReLU27_0_split_1
I0129 22:47:04.100962  7239 net.cpp:122] Setting up Eltwise13_ReLU27_0_split
I0129 22:47:04.100968  7239 net.cpp:129] Top shape: 50 640 8 8 (2048000)
I0129 22:47:04.100971  7239 net.cpp:129] Top shape: 50 640 8 8 (2048000)
I0129 22:47:04.100973  7239 net.cpp:137] Memory required for data: 3064423000
I0129 22:47:04.100975  7239 layer_factory.hpp:77] Creating layer Convolution30
I0129 22:47:04.100985  7239 net.cpp:84] Creating Layer Convolution30
I0129 22:47:04.100986  7239 net.cpp:406] Convolution30 <- Eltwise13_ReLU27_0_split_0
I0129 22:47:04.100992  7239 net.cpp:380] Convolution30 -> Convolution30
I0129 22:47:04.131161  7239 net.cpp:122] Setting up Convolution30
I0129 22:47:04.131184  7239 net.cpp:129] Top shape: 50 640 8 8 (2048000)
I0129 22:47:04.131187  7239 net.cpp:137] Memory required for data: 3072615000
I0129 22:47:04.131194  7239 layer_factory.hpp:77] Creating layer BatchNorm30
I0129 22:47:04.131202  7239 net.cpp:84] Creating Layer BatchNorm30
I0129 22:47:04.131206  7239 net.cpp:406] BatchNorm30 <- Convolution30
I0129 22:47:04.131212  7239 net.cpp:367] BatchNorm30 -> Convolution30 (in-place)
I0129 22:47:04.131415  7239 net.cpp:122] Setting up BatchNorm30
I0129 22:47:04.131422  7239 net.cpp:129] Top shape: 50 640 8 8 (2048000)
I0129 22:47:04.131424  7239 net.cpp:137] Memory required for data: 3080807000
I0129 22:47:04.131429  7239 layer_factory.hpp:77] Creating layer Scale30
I0129 22:47:04.131434  7239 net.cpp:84] Creating Layer Scale30
I0129 22:47:04.131436  7239 net.cpp:406] Scale30 <- Convolution30
I0129 22:47:04.131440  7239 net.cpp:367] Scale30 -> Convolution30 (in-place)
I0129 22:47:04.131485  7239 layer_factory.hpp:77] Creating layer Scale30
I0129 22:47:04.131600  7239 net.cpp:122] Setting up Scale30
I0129 22:47:04.131608  7239 net.cpp:129] Top shape: 50 640 8 8 (2048000)
I0129 22:47:04.131623  7239 net.cpp:137] Memory required for data: 3088999000
I0129 22:47:04.131628  7239 layer_factory.hpp:77] Creating layer ReLU28
I0129 22:47:04.131633  7239 net.cpp:84] Creating Layer ReLU28
I0129 22:47:04.131636  7239 net.cpp:406] ReLU28 <- Convolution30
I0129 22:47:04.131640  7239 net.cpp:367] ReLU28 -> Convolution30 (in-place)
I0129 22:47:04.132263  7239 net.cpp:122] Setting up ReLU28
I0129 22:47:04.132274  7239 net.cpp:129] Top shape: 50 640 8 8 (2048000)
I0129 22:47:04.132277  7239 net.cpp:137] Memory required for data: 3097191000
I0129 22:47:04.132279  7239 layer_factory.hpp:77] Creating layer Convolution31
I0129 22:47:04.132289  7239 net.cpp:84] Creating Layer Convolution31
I0129 22:47:04.132292  7239 net.cpp:406] Convolution31 <- Convolution30
I0129 22:47:04.132298  7239 net.cpp:380] Convolution31 -> Convolution31
I0129 22:47:04.162950  7239 net.cpp:122] Setting up Convolution31
I0129 22:47:04.162971  7239 net.cpp:129] Top shape: 50 640 8 8 (2048000)
I0129 22:47:04.162974  7239 net.cpp:137] Memory required for data: 3105383000
I0129 22:47:04.162982  7239 layer_factory.hpp:77] Creating layer BatchNorm31
I0129 22:47:04.162992  7239 net.cpp:84] Creating Layer BatchNorm31
I0129 22:47:04.162995  7239 net.cpp:406] BatchNorm31 <- Convolution31
I0129 22:47:04.163002  7239 net.cpp:367] BatchNorm31 -> Convolution31 (in-place)
I0129 22:47:04.163206  7239 net.cpp:122] Setting up BatchNorm31
I0129 22:47:04.163213  7239 net.cpp:129] Top shape: 50 640 8 8 (2048000)
I0129 22:47:04.163215  7239 net.cpp:137] Memory required for data: 3113575000
I0129 22:47:04.163221  7239 layer_factory.hpp:77] Creating layer Scale31
I0129 22:47:04.163226  7239 net.cpp:84] Creating Layer Scale31
I0129 22:47:04.163229  7239 net.cpp:406] Scale31 <- Convolution31
I0129 22:47:04.163233  7239 net.cpp:367] Scale31 -> Convolution31 (in-place)
I0129 22:47:04.163278  7239 layer_factory.hpp:77] Creating layer Scale31
I0129 22:47:04.163396  7239 net.cpp:122] Setting up Scale31
I0129 22:47:04.163403  7239 net.cpp:129] Top shape: 50 640 8 8 (2048000)
I0129 22:47:04.163405  7239 net.cpp:137] Memory required for data: 3121767000
I0129 22:47:04.163410  7239 layer_factory.hpp:77] Creating layer Eltwise14
I0129 22:47:04.163415  7239 net.cpp:84] Creating Layer Eltwise14
I0129 22:47:04.163419  7239 net.cpp:406] Eltwise14 <- Eltwise13_ReLU27_0_split_1
I0129 22:47:04.163422  7239 net.cpp:406] Eltwise14 <- Convolution31
I0129 22:47:04.163426  7239 net.cpp:380] Eltwise14 -> Eltwise14
I0129 22:47:04.163450  7239 net.cpp:122] Setting up Eltwise14
I0129 22:47:04.163456  7239 net.cpp:129] Top shape: 50 640 8 8 (2048000)
I0129 22:47:04.163458  7239 net.cpp:137] Memory required for data: 3129959000
I0129 22:47:04.163460  7239 layer_factory.hpp:77] Creating layer ReLU29
I0129 22:47:04.163466  7239 net.cpp:84] Creating Layer ReLU29
I0129 22:47:04.163470  7239 net.cpp:406] ReLU29 <- Eltwise14
I0129 22:47:04.163472  7239 net.cpp:367] ReLU29 -> Eltwise14 (in-place)
I0129 22:47:04.163622  7239 net.cpp:122] Setting up ReLU29
I0129 22:47:04.163631  7239 net.cpp:129] Top shape: 50 640 8 8 (2048000)
I0129 22:47:04.163633  7239 net.cpp:137] Memory required for data: 3138151000
I0129 22:47:04.163636  7239 layer_factory.hpp:77] Creating layer Pooling1
I0129 22:47:04.163640  7239 net.cpp:84] Creating Layer Pooling1
I0129 22:47:04.163643  7239 net.cpp:406] Pooling1 <- Eltwise14
I0129 22:47:04.163647  7239 net.cpp:380] Pooling1 -> Pooling1
I0129 22:47:04.163815  7239 net.cpp:122] Setting up Pooling1
I0129 22:47:04.163823  7239 net.cpp:129] Top shape: 50 640 1 1 (32000)
I0129 22:47:04.163826  7239 net.cpp:137] Memory required for data: 3138279000
I0129 22:47:04.163828  7239 layer_factory.hpp:77] Creating layer InnerProduct1
I0129 22:47:04.163835  7239 net.cpp:84] Creating Layer InnerProduct1
I0129 22:47:04.163837  7239 net.cpp:406] InnerProduct1 <- Pooling1
I0129 22:47:04.163841  7239 net.cpp:380] InnerProduct1 -> InnerProduct1
I0129 22:47:04.164024  7239 net.cpp:122] Setting up InnerProduct1
I0129 22:47:04.164031  7239 net.cpp:129] Top shape: 50 10 (500)
I0129 22:47:04.164047  7239 net.cpp:137] Memory required for data: 3138281000
I0129 22:47:04.164052  7239 layer_factory.hpp:77] Creating layer InnerProduct1_InnerProduct1_0_split
I0129 22:47:04.164057  7239 net.cpp:84] Creating Layer InnerProduct1_InnerProduct1_0_split
I0129 22:47:04.164059  7239 net.cpp:406] InnerProduct1_InnerProduct1_0_split <- InnerProduct1
I0129 22:47:04.164063  7239 net.cpp:380] InnerProduct1_InnerProduct1_0_split -> InnerProduct1_InnerProduct1_0_split_0
I0129 22:47:04.164068  7239 net.cpp:380] InnerProduct1_InnerProduct1_0_split -> InnerProduct1_InnerProduct1_0_split_1
I0129 22:47:04.164109  7239 net.cpp:122] Setting up InnerProduct1_InnerProduct1_0_split
I0129 22:47:04.164115  7239 net.cpp:129] Top shape: 50 10 (500)
I0129 22:47:04.164117  7239 net.cpp:129] Top shape: 50 10 (500)
I0129 22:47:04.164119  7239 net.cpp:137] Memory required for data: 3138285000
I0129 22:47:04.164122  7239 layer_factory.hpp:77] Creating layer SoftmaxWithLoss1
I0129 22:47:04.164127  7239 net.cpp:84] Creating Layer SoftmaxWithLoss1
I0129 22:47:04.164129  7239 net.cpp:406] SoftmaxWithLoss1 <- InnerProduct1_InnerProduct1_0_split_0
I0129 22:47:04.164132  7239 net.cpp:406] SoftmaxWithLoss1 <- Data2_Data1_1_split_0
…
